value network/asterix.pt (torch, 266007 bytes, 5 tensors)

conv.weight f4 [8, 3, 3, 3]
00000000: 8924 d4be 1f62 d63d da9d ca3d 09ca 82be
00000010: ce49 e33d 2261 1e3f 0a71 9fbe ee41 f2bd
00000020: 87ab 293e 00c3 523e 702c 97bd 05bd 9b3c
00000030: 0c91 28be 444c 7fbd 4efb e93d d6a3 a13e
00000040: f9a4 f2bd e1c9 463d f6cf 3f3e d42a 313e
00000050: 7060 0dbe 42a7 ff3d c8fc 01be 337a c1bc
00000060: 7998 1d3c 0677 8abd 8ab2 29be f4b4 1cbe
00000070: 0307 1dbe f2a6 d23d 0551 1fbe a9d5 19be
00000080: 9307 1dbe 299e 8f3d ac15 19be eab0 1ebe
00000090: 3f30 a63d 925e b9bd b6a1 cbbd 5f8a 673e
000000a0: fdeb 2b3e f50d 56be 3e3f 23be b6f1 203d
000000b0: 5a65 1fbe 67fa eabd ed37 12be c7d8 05be
000000c0: db74 bb3d 8df3 823d 7b28 143e 3961 283e
000000d0: db90 b7bd 5944 923d 2c3f 273f 9556 d63e
000000e0: 5ae2 283f 9f80 e53e 0aa2 da3e a5b7 043f
000000f0: 80db b63e 8f59 683e 381d 063f ce0b 213e
00000100: 8153 f73c a5e7 f63d 9bb8 9838 a799 053d
00000110: 5226 b33e 3ad3 bf3d 5663 92bd ed35 04be
00000120: 865a ce3d a458 2abe 82e2 233d 22c8 55bd
00000130: b28b 0d3e 746b 86bd 7b58 81bd d210 063d
00000140: 1817 353d 65a3 06be 6574 a7bd a1df a23e
00000150: c24d bcbe be6f b5be 2407 623e 4a8e 07be
00000160: 07df ebbe e534 dfbe 6f18 db3e a682 ff3d
00000170: 715c c2bd 5540 933e 29b1 80bd 2d9f 45be
00000180: 71d7 a93e 85bc 0a3e 5248 033f 99e9 e33d
00000190: 17c8 013e 4d45 153e d9ac d33d 9f7e 3fbe
000001a0: cdc7 3fbe 5903 0abe 3117 c33d b209 dfbc
000001b0: 2dd3 ca3d 9691 12be 1352 983e fb97 ee3e
000001c0: 2835 cf3e 9d91 c63e 204b 563e 3db8 cf3d
000001d0: 78b7 593e b646 153e ead0 24be 016f b33d
000001e0: dcc0 693e 53ff 25be 0f5f 9ebe afb8 a2bb
000001f0: 63dd 2dbe 6e12 70be 475e 833d 68c7 1ebe
00000200: 80e5 3f3d 3344 cb3d a686 063d a256 383d
00000210: f889 0c3e c9e8 dfbd b674 1abe 80cc 20bd
00000220: c490 3a3e d2d8 b3bc 35df 0cbe 37f0 4c3d
00000230: 46e1 d43d 8a6d 58be 7c03 4f3e f774 8cbe
00000240: a11c 6abe 90b3 053d 29b8 0cbe 7879 f3be
00000250: 1cb1 d0bc ff65 d5be 3660 d2be fbae 203d
00000260: 20f8 d2be 2c84 ff3d 5099 bd3d 4035 f6bd
00000270: d5c0 143b 10db 0a3e 1f49 3ebd 670b 273d
00000280: 3754 7cbd c085 f5bd 6877 f83e fcf9 fb3e
00000290: 43b6 073f 3c56 2b3f c61d 1d3f ef27 033f
000002a0: 76d0 e23e 0069 d73e 95cd 9f3e 755f 4fbe
000002b0: 5325 913d b456 bfbe 0f97 3abf b175 7439
000002c0: 8011 cabe d0be 09be 9af3 b2bd 336f 83be
000002d0: 016c 13be 6f95 393d 8781 50bd 40c0 5a3e
000002e0: 57ee b23d e9ce 313c f7d9 b3bd f76b cebd
000002f0: 5232 7e3c f2b7 5a3f b9e6 d93e 9dd9 053f
00000300: 7376 32bd 284f ae3e 57fb 5d3c 4dd3 323f
00000310: 4953 113f 6dd1 203e a34a 613c 7303 153e
00000320: c725 3f3d 321c 8c3b 98f8 3dbe bf6f e73e
00000330: cc9f 2b3e a516 343d 597d 833e 6648 00be
00000340: b4bd 11bd 8677 153d 358d 2fbe 325a 50bd
00000350: c168 1e3e 3048 5cbd 9aca c83d 19bd 1d3e
-0.41434124 0.10467934 0.09893389 -0.25544766 0.110980615 0.6186696 -0.3114093 -0.11828981
0.16569339 0.20582199 -0.07381523 0.01901103 -0.16461581 -0.062328592 0.11424886 0.3157031
-0.11847872 0.04853237 0.18731675 0.17301494 -0.13806319 0.12483074 -0.12694085 -0.02361784
0.009618872 -0.06760983 -0.16572013 -0.15303403 -0.15334706 0.102857485 -0.1555825 -0.15022911
-0.1533492 0.070125885 -0.14949673 -0.15497175 0.08114671 -0.09051241 -0.09942953 0.22611378
0.16789241 -0.20903762 -0.15942094 0.039293014 -0.15566006 -0.11473542 -0.14279146 -0.13070975
0.09153148 0.0639411 0.14468567 0.16443338 -0.08963176 0.071419425 0.6533077 0.41862932
0.65970385 0.44824693 0.4270175 0.5184272 0.3571434 0.22690414 0.52388334 0.1572716
0.030191185 0.120559014 7.28231e-05 0.032617237 0.34990174 0.0936646 -0.07147853 -0.12911196
0.1007586 -0.16635376 0.040010937 -0.052192815 0.13822821 -0.06563464 -0.063157044 0.032730885
0.044211477 -0.13148268 -0.08176497 0.3181124 -0.36778075 -0.35436815 0.22073036 -0.13237873
-0.46068594 -0.43595043 0.4279208 0.12476091 -0.09490288 0.2876002 -0.062837906 -0.19299002
0.3317218 0.13548477 0.5128223 0.111285396 0.12673984 0.14577217 0.103357024 -0.18700646
-0.18728562 -0.1347784 0.09525908 -0.027226303 0.0990356 -0.14313349 0.29750118 0.46600327
0.40470243 0.3878297 0.20927095 0.101425625 0.21261394 0.14577755 -0.1609532 0.08761407
0.22827476 -0.1621068 -0.309319 -0.0049658637 -0.16978984 -0.2344453 0.06414466 -0.15505755
0.046849728 0.09925117 0.032843255 0.045004494 0.13724506 -0.10933072 -0.15083584 -0.039257526
0.18219286 -0.021953974 -0.13757022 0.050033774 0.1039453 -0.21135536 0.20216173 -0.27432987
-0.22862484 0.032641947 -0.13742127 -0.4755361 -0.025475077 -0.4167938 -0.41089028 0.039229374
-0.4120493 0.12476382 0.09257758 -0.120218754 0.0022697945 0.13560128 -0.046456452 0.04078236
-0.06160375 -0.119884014 0.485286 0.4921416 0.53012484 0.6692846 0.61373556 0.5123281
0.44299668 0.42072296 0.31211534 -0.20251258 0.07087197 -0.37370837 -0.7288675 0.00023313497
-0.39466476 -0.13451695 -0.087378696 -0.25670776 -0.14396669 0.045308527 -0.050904777 0.213624
0.08736866 0.010852554 -0.08781808 -0.100791864 0.015514927 0.8543693 0.4255884 0.52285177
-0.043569993 0.34044766 0.013548694 0.6985367 0.5676771 0.1570489 0.013750705 0.14552097
0.046666887 0.004275822 -0.18551862 0.45202443 0.16760176 0.043966908 0.2568157 -0.12527618
-0.035581306 0.03649094 -0.1714371 -0.050867267 0.15469648 -0.05377978 0.09804268 0.15404166

conv.bias f4 [8]
00000000: d91b adba deb1 83be 2b74 cebd 5940 44be
00000010: eab8 613d 9e76 2a3d ae72 c03d f17e 4fbd
-0.0013207152 -0.2572164 -0.10080751 -0.19165172 0.05510799 0.04161703 0.093968734 -0.05065817

fc_hidden.weight f4 [128, 512]
00000000: 105e c13d 52af 013f 0684 0b3a aeda 673e
00000010: 2c88 983e 391d 81bd a62b b33e 402a 0bbf
00000020: 5240 15be 9557 f33d 40e9 f43d 1c20 90bb
00000030: 7558 e13d 5139 fd3d fc10 b13e d1a3 10bd
00000040: 0db8 a4bd 9fe6 d7bc 47a5 483e 88e7 803d
00000050: 3310 cfbc 7979 813e 9d80 423e bf4a fa3c
00000060: e15f 48bc 0da3 b23d d3a3 643e 4a15 343e
00000070: aac5 7d3e 9290 213d c9e5 8a3e 555e 73be
00000080: bba0 da3c 1c15 e7bc b1bd d23d 3363 903e
00000090: 1241 043e 9de2 2a3e 8ae1 34be be50 68bd
000000a0: a038 b23d b1cf 92bd 32fb 2cbe 183a 8b3d
000000b0: d210 103d cd3d 40be b85f 90bd 37e9 ecbe
000000c0: d3d6 8cbe 7e14 b7be 32e1 3abd 3ca3 863d
000000d0: 9c12 913e 5d66 17be 5358 203e c86d 7ebe
000000e0: 95a0 af3e eb37 e53d 3d45 5a3e 13a2 6f3e
000000f0: f4c4 803e c5b2 1f3e eae4 b73d 17a7 4cbd
00000100: 6bc2 903d 4bd1 08bc 8add 24bd f198 ffbc
00000110: 1ac5 cb3c a3b1 e5bc 7742 44bd 397a 923c
00000120: e9e0 14bd 65c5 0b3c 49e6 023d d5e0 0dbc
00000130: 0486 2237 06e1 84bc 3103 2ebd a925 a03b
00000140: 9669 1dbd a59d 30bd ba13 19bd d208 38ba
00000150: 2b01 e73c d26a 093d 47fc 2a3c cee3 b8bc
00000160: f7a1 5dbd 3253 523c 325b b73c 2f4e 583b
00000170: ae96 ccbc c67e 723c 74e4 b5ba 1492 143d
00000180: 6a55 bbba 2800 c2bc 632f 0e3d d9c0 ad3c
00000190: ebcc bcbb b478 20bc a063 073d 4f5a 093c
000001a0: e0ab 9ebc efd9 5ebd b43e 0abd 9a1e cd3c
000001b0: 5508 b23c eb3a 25bd 1002 c73c 5785 b93c
000001c0: 8328 853a e4ec a4ba 8ee6 16bd 7742 01bd
000001d0: 8a64 e93c 845c 5dbc d9bc 85bc fa62 47bd
000001e0: 2435 0cbe 80bb 943c f63b d13c 15e6 3abd
000001f0: c777 933c e52c 80bc 4f96 48bd 0003 983b
00000200: 3ab7 7bbd 36c3 f3bc 7d3f 553d 8490 d2bc
00000210: 5670 ad3b db9c 28bc 9e96 573c f338 75bd
00000220: 6679 16bc 5238 f8bc ac19 7f3d 2fee 35bd
00000230: aed9 6fbd fed4 34bc bd42 943b 126a 1f3e
00000240: 4c32 6c3c 42ab d7bc e3d8 e43d 4490 3abc
00000250: bd46 7ebd efe5 8dbb 52fa e63c 5da0 de3c
00000260: 3224 213d 9872 9c3c 81e3 583d 94a1 55bd
00000270: 395e 73bd 53b2 3f3d 6dea 72bd 2051 943d
00000280: a86b 7ebd 1e14 b53b 6beb 30bc ac6d 5b3c
00000290: a2a7 2d3d 8641 06bd 56e3 21bd 9ccb 82bd
000002a0: 8a12 8ebc 92ad e0bc e6b1 3abd 2e96 71bc
000002b0: 2943 2cbd c5c0 303c 66e3 66bd 632e a23c
000002c0: c92d bd3c d342 a8bb 26e5 17bd e8ed 74bc
000002d0: 000c 8dbd 24eb 2ebd e253 4ebc 5d87 82bd
000002e0: 6b91 813c a992 283d 2403 9ebc 2fdf 9fbc
000002f0: df61 f1bc e1b0 9bbc 690c 513d 36e4 1bbd
00000300: ac7a e4bc 55e1 6d3c 23ea f33a f601 24bd
00000310: b352 193c 9e46 5fbb 8e0a c5bc 8e2f 11bd
00000320: f091 b0bd 0c0f e23c f71b bfbb 0c73 41bd
00000330: a99b cdba 17d0 39bd 29bf 50bc 7958 e73c
00000340: 6467 6cbd 4de5 43bd 9196 ae3b f15e f5bc
00000350: 54f3 813b e716 1c3c fe43 32bd e7ba 9c3c
00000360: 09c8 c3bd 1660 20bd 1a2e 9b3c 2f4b 05bd
00000370: 4f0e a03c c252 2c3d 2b7f 493c a764 603d
00000380: 559c e0bd 036d a5bc d90b 2bbb 95a5 d7bc
00000390: 29b5 34bd 6a79 bb3c 1a33 24bd d05f af3d
000003a0: 0f38 d3bc dc62 20bd 9d17 bcbb e19d edbb
000003b0: f22c f8bc 1701 39bc 2879 e1bc 2fa9 53bd
000003c0: 6de5 cdbd 33b6 02bd cb52 613c 752b 5a3c
000003d0: 606d 23bd ddc2 1d3d f999 0a3d 2d0d 253d
000003e0: a45e 60bc 6b9f 143c 4e85 84bc 2679 27bd
000003f0: dbe9 f13c b5e8 39bd fe24 fc3c 20c6 b53b
0.09441769 0.5065814 0.0005322102 0.22642013 0.2979139 -0.06304402 0.3499424 -0.54361343
-0.14575318 0.11881939 0.119585514 -0.004398359 0.110032 0.12364448 0.3458327 -0.035312477
-0.080429174 -0.026355086 0.19594298 0.06294161 -0.02527628 0.2528799 0.18994375 0.03055322
-0.012229891 0.08722506 0.22328119 0.17586246 0.24782434 0.039444514 0.27128437 -0.23766454
0.02668797 -0.028208308 0.10290087 0.28200683 0.12915447 0.16688009 -0.17664161 -0.056717627
0.087022066 -0.0716852 -0.16892698 0.0679819 0.03517229 -0.18773575 -0.07049507 -0.4627168
-0.27507648 -0.35757822 -0.04562492 0.06574103 0.2833451 -0.14785142 0.15658693 -0.24846566
0.34302202 0.11192306 0.21315475 0.2340167 0.25150263 0.15595539 0.08979209 -0.049964037
0.07068332 -0.008350681 -0.04025034 -0.031200858 0.024874259 -0.028038805 -0.04791495 0.017880546
-0.036347304 0.008530949 0.0319579 -0.008659561 9.687155e-06 -0.01622058 -0.042483512 0.004887302
-0.038430773 -0.04311909 -0.03737233 -0.00070203573 0.0281988 0.033549137 0.010436124 -0.022569563
-0.05410954 0.012837218 0.022382353 0.0033005585 -0.024974193 0.014800733 -0.0013877288 0.036272123
-0.0014292423 -0.023681715 0.03471316 0.021210121 -0.005761733 -0.009794403 0.033053994 0.008383348
-0.019369066 -0.054407056 -0.033751205 0.025039006 0.021732489 -0.04033939 0.024292976 0.02264659
0.0010159168 -0.0012582806 -0.036840968 -0.031557526 0.028490324 -0.013510827 -0.016325401 -0.048678376
-0.13692147 0.018155813 0.025541287 -0.04562958 0.01800145 -0.015646407 -0.04897147 0.0046390295
-0.061454035 -0.02975617 0.0520625 -0.025703676 0.0052929325 -0.0102913035 0.0131584685 -0.059868764
-0.009184217 -0.030300293 0.062280342 -0.044416603 -0.058557205 -0.011037109 0.0045245574 0.15567806
0.014416289 -0.02632678 0.1117418 -0.011386935 -0.06207918 -0.0043303887 0.028195534 0.027176077
0.03934116 0.019097611 0.05295134 -0.052156046 -0.05941603 0.046800923 -0.059305597 0.07242036
-0.062114388 0.00552608 -0.0107983155 0.013392847 0.042396195 -0.03277733 -0.039523445 -0.06386492
-0.017342824 -0.027426515 -0.045579813 -0.014745278 -0.042056236 0.010788147 -0.056369208 0.01979751
0.023093121 -0.005134919 -0.037083767 -0.014949299 -0.068870544 -0.042704716 -0.012593241 -0.06373475
0.015816411 0.04115549 -0.019288607 -0.019515602 -0.029465614 -0.01900524 0.051037226 -0.038059436
-0.027890526 0.014519055 0.0018609207 -0.040040933 0.009358096 -0.003406919 -0.024052884 -0.035445742
-0.08621585 0.027595066 -0.005832191 -0.047228858 -0.0015686649 -0.045364466 -0.012740889 0.02824043
-0.05771579 -0.0478261 0.0053280075 -0.029952498 0.0039657746 0.009526945 -0.043521874 0.01913209
-0.09559638 -0.039154135 0.018942881 -0.032542404 0.019538073 0.04207111 0.012298386 0.05478349
-0.10967318 -0.020193582 -0.002609959 -0.026324073 -0.04411808 0.022885043 -0.040087797 0.08563197
-0.025783567 -0.03915678 -0.0057401196 -0.0072514866 -0.03029487 -0.011291764 -0.027523592 -0.051675018
-0.10053525 -0.03191204 0.01375265 0.013316025 -0.03989923 0.038515914 0.033838246 0.04029577
-0.013694439 0.009071211 -0.016176846 -0.04088702 0.029530456 -0.045387942 0.030779358 0.0055473

fc_hidden.bias f4 [128]
00000000: e567 3d3c 7b66 fdbc 4d5d e0bd 4218 e2bc
00000010: 0e20 a13d 5929 db3c 5da2 9c3d a54b 4b3d
00000020: 832c a5bc 0942 8e3d 6296 b3bc 09f7 8d3d
00000030: 0f75 0abd 377d 003e 73d5 883d c680 323d
00000040: efce 8f3d 0255 8bbc 8a35 b53d 2a3a aa3d
00000050: 9d0e 80bd e407 903c 5bc3 2a3c dcaf 283b
00000060: 7b22 4cbd 066e 09bc e822 903a 0d26 b3bc
00000070: dab6 bb3c 872e 4cbd 8bdf c43c 8a45 213c
00000080: 31c7 46bd bf02 af3d d0ab cfbc 7c18 e1ba
00000090: 8b30 ee3c 70fd 42bd e526 963c 5dfc ee3c
000000a0: f05a 923d ca15 f93c 63f4 303d eee8 0a3d
000000b0: 4a6b b6bd c5c5 25bd 2dd2 7fbd 34a5 ed3c
000000c0: e530 d5bc 3011 b43d a9a8 c0bd ac48 a13b
000000d0: d694 45bc 936a 9d3d 73a4 59b9 af1d b03b
000000e0: 6296 033b 4c9b 32bd 4bd4 9cbd b7f9 393d
000000f0: dd0e fc3c f9d7 d93c 8034 ad3d 482a 8cbb
00000100: 1b7c f23c 50d7 5dbc eb6a 2dbc 6923 b43d
00000110: 76a9 0bbd 656d 23bd 74ca a33c 9057 bfba
00000120: 2296 d1bd 18db bd3d 3dfc 6a3d fb33 963a
00000130: fc27 8cbd 4fb8 9c3d 65aa 813a 388b 683d
00000140: 157e 153c b5c3 9c3c e9f1 943d 8dd1 9ebd
00000150: 089b f5bb e0e2 413b 3b1a 56bd 8888 bb3c
00000160: e40c 443c a15f a33c 2407 a33d 520c 763d
00000170: ef89 f03c 00f6 99ba b2f2 03bd c5ea 513d
00000180: 2858 ca3a 8ce9 b43c 2a08 fbbc 8947 093d
00000190: 7912 34bd 6e58 92bc a0b5 21bd dd61 23bd
000001a0: 9f32 76b9 0a7a 623c c192 883d 7fc1 10bb
000001b0: 7165 1cbd eacf 1cbd 8fcb 34bd 5a65 cc3c
000001c0: dcf6 d53a e961 84bb d3b7 533d ce12 893d
000001d0: d0e5 57bc f19e 4a3c 93e0 b43d ea73 4abd
000001e0: 06f8 903d 0760 f23c 4130 a0bc 7d45 7f3d
000001f0: 199e 8a3d 1285 08bd a629 85bc e8fa 323b
0.011560415 -0.030932656 -0.10955296 -0.027599458 0.07867442 0.026753115 0.07648156 0.049632687
-0.020162826 0.06946189 -0.021922294 0.06931884 -0.033803042 0.12547766 0.06681337 0.04357984
0.07021891 -0.017008308 0.088481024 0.08311875 -0.06252787 0.017581888 0.010422553 0.0025739586
-0.04983757 -0.008388048 0.0010996731 -0.02186873 0.022914339 -0.04984906 0.024032375 0.00984324
-0.048529807 0.08545446 -0.025350481 -0.0017173435 0.029075881 -0.047604978 0.018329093 0.02917307
0.07146251 0.030405898 0.043201815 0.033913545 -0.089071825 -0.04047181 -0.0624563 0.029009439
-0.026024291 0.08792341 -0.09407169 0.0049219932 -0.012059411 0.07686343 -0.00020755995 0.0053746323
0.0020078649 -0.043605134 -0.07657679 0.045404162 0.030768806 0.026592242 0.08457279 -0.0042775013
0.029600194 -0.013540104 -0.010584573 0.087958165 -0.034097157 -0.03989925 0.019993998 -0.0014598239
-0.10233714 0.092703044 0.05736946 0.0011459583 -0.06843564 0.076523416 0.00098927 0.056773394
0.009124299 0.01913629 0.07272703 -0.077548124 -0.007495288 0.002958469 -0.05227111 0.022892252
0.011965964 0.01994306 0.07960346 0.060070343 0.029362647 -0.0011746287 -0.032213874 0.051249284
0.001543765 0.02208402 -0.030643541 0.033515487 -0.04396293 -0.017864432 -0.03947985 -0.03988825
-0.00023479246 0.013823042 0.06668616 -0.002208799 -0.03818268 -0.03828422 -0.04413944 0.024950672
0.001632418 -0.004039992 0.05168898 0.0669304 -0.01317735 0.012366996 0.08831897 -0.04942695
0.07078557 0.029586805 -0.01955426 0.06232213 0.06768436 -0.03333003 -0.016255211 0.0027310196

value.weight f4 [1, 128]
00000000: 5ada 10be 6e42 c6bd 9b13 6ebd bcd2 55bd
00000010: 701e 883c bba3 4f3e a651 8b3d 5276 023c
00000020: 2aa0 103e 5eaa 173c ecd2 8fbd d132 643d
00000030: a664 f3bb 2468 fabd f32d 273d 2d4e 9c3d
00000040: a1fe e13d 4937 f23d d9de a33d d678 613d
00000050: c412 283d 0c0b f2bc a37b fe3d 7b5d 5dbd
00000060: 88cd 2cbd addd 273b 1fc2 79bd c4e4 e23d
00000070: 9d44 353d d002 a2bd 9da0 833d 9a47 a63d
00000080: 00ce 8fbd c726 4d3d ad25 ee3d 1895 8f3e
00000090: 7946 43bd 4d09 6ebc 8213 043b 3713 d43d
000000a0: 55e6 d43d 7526 613d 8293 903d e412 043c
000000b0: 3aa8 e0bd 74c0 85bd ff25 793b 96ba 22bd
000000c0: 1e38 093b 3adc 0d3d c628 e7bd 8d14 c43d
000000d0: 048f ab3e 23cb 0f3e d68d 1bbe 9360 163e
000000e0: 2db2 1f3e 32f7 92bd a58d 86bd a4fd d03c
000000f0: 7278 633e a84a ac3d 7793 c43d 9f32 0ebd
00000100: 5afd 8bbd 4790 6d3e 2fd3 c9bd 3097 853d
00000110: 8363 b6bd 26a5 1cbd 4df3 5b3e f078 603e
00000120: 47a9 e7bd b596 703d 7b6e ef3c 3689 1cbe
00000130: a733 18bd 85b3 be3d c32b f23d 0cee 4c3d
00000140: 45f6 833e 8a3b 5abe 1cb0 483d 88e5 a9bd
00000150: 1787 b2bc b0c1 8b3d fb25 c8bd 22dc ae3d
00000160: d9ca 023e 5a17 113e 7c74 943d b59c 283d
00000170: 2e5a 9ebd 1d07 f2bc 5301 2abd aff3 193d
00000180: 8350 d2bb 5e45 92bd bafc 5dbd db76 20bd
00000190: bd65 c3bc 841b bcbc aec3 a4bd 4691 e5bc
000001a0: a434 bc3e 7cd8 ca3d ce55 b63c 756e 0a3e
000001b0: 53dc 21bd 2832 5fbe a4a5 d03d 1f54 7b3e
000001c0: f4cc d4bc b60d 5abd 9f6f 3e3d 9590 5d3d
000001d0: 68b6 9dbc fe7d b63b 5526 80be f39a 26bd
000001e0: 8f98 153d 4934 89bb bbe5 18bd 8948 753e
000001f0: 66cd ea3d 0830 97bb d737 903e a6e2 c4bc
-0.14145795 -0.09680639 -0.058124166 -0.052202925 0.016616076 0.20277302 0.068026826 0.00796278
0.14123598 0.009256927 -0.07022652 0.055712525 -0.0074277697 -0.122268945 0.040815305 0.07632098
0.11034895 0.11826951 0.08001489 0.05504688 0.04103352 -0.029546283 0.124259256 -0.054044228
-0.042188197 0.0025614307 -0.060976144 0.1107879 0.044254888 -0.07910693 0.06427119 0.08119126
-0.07021713 0.05008581 0.1162828 0.28043437 -0.04767463 -0.014528585 0.002015323 0.103552274
0.10395495 0.054968316 0.07059385 0.0080611445 -0.10969587 -0.06530848 0.0038017032 -0.039728723
0.002093799 0.034633853 -0.11287074 0.09574232 0.3350755 0.14042334 -0.15190825 0.14685278
0.15595312 -0.07176055 -0.06569985 0.02551157 0.22213915 0.08412677 0.09598439 -0.034716245
-0.06835432 0.23199569 -0.09854733 0.06522977 -0.08905699 -0.038243435 0.2147953 0.21921134
-0.11311584 0.058737475 0.029227486 -0.15286717 -0.037158635 0.093115844 0.11824753 0.050031707
0.25773826 -0.21311775 0.048996076 -0.08295733 -0.021792931 0.06824052 -0.09772869 0.08538081
0.12772693 0.14169064 0.0724878 0.041165072 -0.07732044 -0.029544408 -0.04150517 0.03758591
-0.006418289 -0.07142137 -0.054196097 -0.03917585 -0.023852224 -0.02296234 -0.080451354 -0.028023373
0.36758912 0.09904572 0.022257712 0.13518699 -0.03951676 -0.21796477 0.101878434 0.24543808
-0.025976636 -0.053235732 0.04649317 0.054092962 -0.019252017 0.0055692187 -0.25029245 -0.040675115
0.036522444 -0.004187141 -0.037328463 0.23953451 0.11464958 -0.00461388 0.28167602 -0.024033856
