value network/asterix.pt (torch, 68631 bytes, 5 tensors)

conv.weight f4 [8, 3, 3, 3]
000000 83 f0 5e bf 1c 88 ea be a4 f8 bd be fb 89 6d bf
       -0.8708574 -0.45806968 -0.3710376 -0.92788666
000010 ed da 6d bf 5d 5f 97 bf 6b 6a c0 3e 15 d3 a1 3e
       -0.9291218 -1.1825978 0.3758119 0.31606355
000020 47 9b 4c be f5 5a 4e be de 24 d1 bc 59 f7 a4 be
       -0.19981109 -0.20151885 -0.025530275 -0.3221996
000030 53 bd 54 bf be 33 80 bd ab 7a 5e bf c8 41 c8 3e
       -0.83101386 -0.06259869 -0.86905926 0.39112687
000040 52 77 43 3e f7 34 a6 be 3b 41 bf bd d1 4c eb 3d
       0.19088486 -0.32462284 -0.093386136 0.11489261
000050 09 60 f1 bd 8b fc 89 bd 39 e4 bd bd 32 23 12 3e
       -0.117858954 -0.06737622 -0.09272046 0.14271238
000060 39 e8 b2 bd 65 8b b1 bd e2 bc 78 3d 85 b4 93 3f
       -0.08735699 -0.086691655 0.060727008 1.1539465
000070 06 7e 0f 3f de 57 24 3f 1f 9f c3 3f 7c 77 bb 3f
       0.5605167 0.64196575 1.5282935 1.4645839
000080 fa 7c e3 3f 24 cf 9e 3f 60 73 77 3f b7 9b 8d 3f
       1.7772515 1.2406964 0.96660423 1.1063145
000090 e5 a1 83 3d ef 2f e3 bd 04 36 46 be 38 53 2f 3f
       0.06427363 -0.11093127 -0.19356543 0.68486357
0000a0 23 d1 93 bd a3 56 14 c0 5e 1c 67 3e 07 f0 95 bc
       -0.07217624 -2.317788 0.22569415 -0.01830293
0000b0 8a c7 51 bf a5 6b 12 be fc fc e8 bd 76 b6 a3 3d
       -0.819451 -0.14298876 -0.11376378 0.07993786
0000c0 e9 6f 5d 3d 8f 6d 51 3d c7 48 2c be bd 2d fe 3c
       0.054061804 0.051129874 -0.16824637 0.03102767
0000d0 e3 ce 6f 3d 2f 9f 22 3e 07 f5 9a bf 66 28 c5 bf
       0.058546912 0.15881036 -1.2106026 -1.5402954
0000e0 93 c3 e0 bf a9 8f af bf b5 ca c0 bf d3 9d d4 bf
       -1.7559685 -1.3715717 -1.5061861 -1.6610664
0000f0 e8 17 55 bf a8 db 68 bf a7 2c 96 bf 79 e1 06 3f
       -0.83239603 -0.9096017 -1.1732377 0.52687794
000100 96 45 23 bd d6 18 22 3f 8b 55 31 3f 40 53 21 be
       -0.039861284 0.63319147 0.69271153 -0.15754414
000110 40 11 57 3f 80 ac 85 3e e3 d1 3a 3e 44 e8 d6 3e
       0.84010696 0.2610817 0.18244128 0.4197408
000120 8c bb d4 3c 88 6a f0 3d 9e a8 99 bc 88 5f b9 3d
       0.025968336 0.11739069 -0.01875716 0.09051424
000130 52 54 e9 bb 20 c4 54 bd 13 e8 1a be 98 73 24 bd
       -0.0071206475 -0.051944852 -0.15127592 -0.0401493
000140 b5 90 0a 3e 02 5f 4c 3f a8 32 d5 3e 6f 63 8d 3e
       0.13531764 0.7983247 0.4164021 0.27614924
000150 16 51 85 3f 7d c6 55 3f 4e bd 12 3f 5d 78 5f 3f
       1.041537 0.83505994 0.57320106 0.87293035
000160 a9 36 88 3e 7c 2e ad 3d 59 9b f1 3e a5 37 aa bd
       0.26604202 0.08456132 0.47188833 -0.083113946
000170 f2 cb f3 be 95 fe fc 3e b6 33 18 3d c3 3c 63 bf
       -0.47616535 0.4941298 0.03715869 -0.8876459
000180 5a 3f 06 3f 40 b2 04 3e e0 ee eb be ff 62 48 3d
       0.52440417 0.12958622 -0.46080685 0.048922535
000190 94 d0 19 bc 85 88 ac 3b c2 90 35 be c0 3c 04 be
       -0.009388108 0.005265298 -0.17731002 -0.129138
0001a0 2c 87 4b 3e a7 7a e8 bd 15 11 ca 3d 1e e7 2d 3e
       0.19875783 -0.11351519 0.098665394 0.16982695
0001b0 07 1f d7 3e fa ac 89 3f 36 e4 ca 3f 91 89 a6 3f
       0.4201586 1.0755913 1.5850894 1.3010732
0001c0 3c 6b c8 3f 9b 94 ca 3f 85 bc 84 3e 15 4d 81 3f
       1.5657725 1.5826601 0.2592508 1.0101649
0001d0 16 49 b4 3f dc 85 28 3e e0 82 df bd 8c e4 1c 3f
       1.4084804 0.16457313 -0.10913634 0.61286235
0001e0 35 81 47 3f 2f ec 07 3e 66 5c 5f 3f 9d 2b 2b 3e
       0.7793153 0.1327369 0.87250364 0.16715856
0001f0 7d 46 69 bd 95 e6 ba 3e ea cc c9 3d 04 8f 3e be
       -0.05695199 0.36504045 0.098535374 -0.18609244
000200 73 5b 51 bd bc 4b 47 be de 1c 11 3e 56 e6 cb 3d
       -0.051112603 -0.19462484 0.14171168 0.099560425
000210 41 c4 fe 3c 87 34 b7 bc f5 43 57 3d 68 94 9c 3f
       0.03109944 -0.022363914 0.052555043 1.223279
000220 a9 a9 9a 3f 16 46 95 3f f1 21 d6 3f c4 c7 b7 3f
       1.2083026 1.1662014 1.6729108 1.4357839
000230 3a 94 d6 3f a0 b8 b3 3f 6d a7 93 3f b4 27 a1 3f
       1.6763985 1.4040718 1.1535469 1.2590241
000240 ca f8 0b 3e 2a ea f3 bd b8 d6 01 3f 0f 1a 1e 3f
       0.13669124 -0.119098976 0.5071826 0.6175851
000250 49 38 95 bc 72 68 1d 3f ed 9c cd 3d c4 f5 90 3c
       -0.018215315 0.61487496 0.10039697 0.017695315
000260 43 f7 f7 3e 52 4c 64 bd 1a d6 13 3e 9e 31 fb bd
       0.48430833 -0.055736847 0.14437142 -0.12265323
000270 da 8e 0d 3e f6 f1 11 3e 14 e5 94 bd a8 4c 22 be
       0.13824025 0.14252457 -0.07270256 -0.15849555
000280 18 58 be 3d 96 c6 23 be c7 a8 2d 3f e3 a6 96 3e
       0.09294146 -0.15993723 0.6783566 0.294242
000290 6c 55 21 3f 7c 71 b1 3f 44 5f 83 3f 09 f8 8b 3f
       0.6302097 1.3862758 1.0263448 1.0935069
0002a0 76 72 65 3f 25 c9 27 3f 60 03 64 3f 1d 0c 20 bf
       0.8962778 0.655413 0.8906765 -0.62518483
0002b0 3b c3 f7 3d 86 01 af bd 2a b8 01 c0 70 2d 20 be
       0.12097784 -0.085452124 -2.0268655 -0.15642333
0002c0 51 fd 0f 3f 6e 5f 7a bf 60 5d 05 3e 45 4c d9 3e
       0.56245905 -0.97801864 0.13023901 0.42441002
0002d0 5a c4 39 3d 17 cd 37 3c 45 eb d4 3d ff 0f 94 3d
       0.04535327 0.011218331 0.103964366 0.072296135
0002e0 1d b7 84 3c 49 ab fb bd d8 01 82 be 53 a1 d7 3d
       0.016200596 -0.122885294 -0.25392032 0.10528817
0002f0 e5 03 c3 3d f2 2b b9 3d d9 55 7c bd db 14 0d be
       0.09522227 0.09041585 -0.06160531 -0.13777487
000300 c2 ed c2 bf 47 00 bb bf bd b6 b2 bf 99 37 bc bf
       -1.5228808 -1.460946 -1.3962017 -1.4704467
000310 2a b8 88 bf 8c ff 5a bf 3e 32 82 3e 5b e5 22 be
       -1.0681202 -0.85546184 0.25428957 -0.15907805
000320 f6 3b bb be b7 ab 99 bf 6a e4 29 3e e6 42 a2 bf
       -0.36569184 -1.2005528 0.1659104 -1.2676666
000330 ab ec 0d bf 3f 4b 22 3e db a9 8e bf b1 d9 5d 3d
       -0.5543925 0.15849017 -1.1145586 0.054162685
000340 41 d3 c4 bd 29 e9 cf bd 25 3b 14 3e 3b ed 53 3e
       -0.09610606 -0.10151894 0.14475687 0.20695965
000350 3f 71 0e bd 03 2e cb bc cb 84 2f bd 1f 87 b4 bd
       -0.03477597 -0.024802214 -0.04285125 -0.08814835

conv.bias f4 [8]
000000 f8 99 85 be 26 6c 9b bd 11 8b 3b be 7d 97 8f be
       -0.2609403 -0.07588987 -0.18314768 -0.28045264
000010 57 c1 79 3d ef d3 4a 3e 15 69 59 be ac fe ab be
       0.0609754 0.19807409 -0.21231492 -0.33592737

fc_hidden.weight f4 [32, 512]
000000 11 08 3f bd c6 15 5c 3d 6b 63 20 3d cb 58 0a 3d
       -0.046638552 0.053731702 0.039157312 0.033776086
000010 2c e6 43 3d e9 17 84 3d 07 73 49 3d b8 16 f8 3b
       0.04782693 0.06449873 0.049181964 0.0075710677
000020 bc 60 f2 3b a0 49 80 3d a8 64 1a 3d 50 e5 ca 3d
       0.0073967855 0.06264043 0.03769365 0.09907019
000030 d1 60 18 3d 45 d4 99 3d 1d da bd 3d 56 ee d5 3d
       0.037201706 0.0751119 0.092701174 0.104458496
000040 ee 8c e0 3c 89 3a 27 3d a4 31 00 3d 52 9e b5 3d
       0.02741095 0.040827308 0.03129734 0.08868088
000050 5a 36 a9 3d b9 d3 b4 3d 04 32 30 3c 01 8d 6c 3c
       0.0826232 0.088294454 0.010754112 0.014437915
000060 98 be 7e 3d 0a b7 99 3d 45 c5 77 3d ea d9 e6 3c
       0.062193483 0.07505615 0.060490865 0.028180081
000070 5c 34 1f 3d 92 03 0e 3d 80 e5 d5 3c 71 fb 0a 3d
       0.038868293 0.034671374 0.02611041 0.0339312
000080 7a bd 23 3d cf c0 09 3d a9 71 cd 3d 29 2c f8 3b
       0.03997562 0.033631142 0.100314446 0.0075736237
000090 2f 10 6a 3d 97 b9 88 3d e5 e5 59 3d 6a 5f 6b bc
       0.05714434 0.066760235 0.05319776 -0.01436601
0000a0 49 75 9b 3d 1c a4 56 3d d6 08 c5 3d 4c 3d 1c 3d
       0.0759073 0.0524026 0.09620826 0.038144395
0000b0 e8 c1 b9 3c a6 2a 6e 3c 77 fd ad 3c a3 21 0c 3c
       0.02267547 0.014536535 0.021239026 0.0085529415
0000c0 ce de 7d 3a 76 ce 28 3d 1f b2 a2 3d 98 38 fc 3c
       0.00096843846 0.04121252 0.0794413 0.030788705
0000d0 fb bd 80 3d cc d0 3a 3d 91 bb b0 3c c2 54 b7 3d
       0.06286236 0.04560928 0.021573814 0.08951713
0000e0 32 d6 95 3d 06 e3 ad 3c ae b0 a4 3c d7 b8 91 3d
       0.07316245 0.021226417 0.020103779 0.071153335
0000f0 ad bc 05 3d 3e 52 a3 3c bc 9b 62 3c 80 6d a0 bc
       0.03265064 0.019936677 0.013831075 -0.019583464
000100 3e 2d 96 3c 01 33 43 3d fe bd e6 3c 4f 0f 8a 3c
       0.01833212 0.047656063 0.028166767 0.016853003
000110 2b 92 b0 3c e5 e8 88 3d 54 99 b4 3d a9 61 9c bd
       0.021554073 0.06685046 0.088183075 -0.07635815
000120 27 6f 93 bd 42 a0 f6 bc ed b4 17 3d c9 7f 10 3c
       -0.07198935 -0.030105714 0.03703778 0.008819529
000130 b3 6f a0 3d f0 11 af bc 9d ae 1b 3c 94 d6 a0 bd
       0.07833805 -0.021370858 0.00950208 -0.078534275
000140 1a 59 45 3c ad 97 51 bc 4b 74 f4 bb 36 5a 28 3c
       0.012045169 -0.01279251 -0.0074601523 0.010275414
000150 db ab 5d 3c 50 e5 2a bd 33 36 77 bb b2 07 2f bd
       0.013529743 -0.041722596 -0.0037721514 -0.04273195
000160 25 68 16 3c dd 03 b1 3c 44 dc 00 3c 54 b2 b3 3c
       0.009180103 0.021608287 0.007865015 0.02193562
000170 f2 14 9d bd 7e 11 3b bd de 45 0f bd 34 c1 98 bc
       -0.076700106 -0.04567098 -0.03497874 -0.018646814
000180 31 78 e6 3d 94 c9 8c bb 5d 2d 51 3c ff 17 ce 3c
       0.112533934 -0.004296491 0.012767163 0.025157927
000190 ce dc cb bd 2d 05 5f bd 79 1b 8e bc 2b 0c ad 3c
       -0.099542245 -0.054448295 -0.017347084 0.021123966
0001a0 c7 f4 58 3d 81 66 50 3d e0 a9 c1 3b 5c 87 0c 3d
       0.052967813 0.050879005 0.0059101433 0.034308776
0001b0 13 f9 87 bc 7c 9a 25 bc a3 23 00 3d d4 6f 9a 3d
       -0.01659826 -0.010107633 0.031283986 0.07540861
0001c0 00 08 14 3b 43 07 40 3c 01 90 db 3c 11 b1 f6 bb
       0.0022587776 0.011720481 0.026802065 -0.007528432
0001d0 e8 06 d3 3b d1 f5 e4 3c e9 a5 0b bc af b6 34 3d
       0.0064400323 0.027949246 -0.008523443 0.044119533
0001e0 c3 d3 92 bd 54 7c 5b 3d c7 37 13 bd 4a d6 02 bc
       -0.071692966 0.053585365 -0.035941865 -0.007985661
0001f0 2d 78 8f 3d 3f 6d 9f 3d 73 d5 82 3d 53 af 39 bc
       0.070053436 0.07784509 0.063883685 -0.011333304
000200 e9 9d 8b 3e 6d 40 b0 bb c1 e0 49 3c 49 fc cb bc
       0.27268913 -0.005378774 0.012321652 -0.024900572
000210 ca 79 4d bd e0 24 89 bd e6 24 a3 bc c9 c3 f6 3d
       -0.050164975 -0.066964865 -0.019915055 0.12049062
000220 7f de 2e 3e 04 ee a2 3c bb 05 78 bc ec 39 3d 3d
       0.17077063 0.019888885 -0.015138085 0.046197817
000230 ae 8d 24 bd 59 58 b0 3c 87 49 18 bd 3b 1b f2 3d
       -0.04017418 0.021526502 -0.037179496 0.118216
000240 79 6c 5f 3d 72 4e cf 3c ad 0b 58 3c a5 48 4d 3d
       0.054546807 0.02530596 0.0131863775 0.050118107
000250 57 64 6a bd 81 5a 92 3c 9c 6d 91 3d ea f8 97 3d
       -0.057224598 0.017865421 0.071009845 0.074205235
000260 a5 ef de 3d a1 6f dd 3b 33 b5 f6 3c be 55 6b 3d
       0.10885552 0.006757692 0.0301157 0.057454817
000270 69 d7 e3 3c cb 0b 7e 3d 0e 1a 8d 3d 23 c0 b3 bc
       0.027812677 0.062022965 0.06889735 -0.021942204
000280 26 87 c8 3d 53 3e f8 3a f2 6e 89 3c 55 06 ed 3b
       0.097914025 0.0018939473 0.016776536 0.007233421
000290 18 00 fc 3c 57 6e 3b 3d 74 bb 69 3d dd 9e 5c 3d
       0.030761763 0.045759525 0.057063535 0.05386244
0002a0 0a 19 a8 3c 53 5c 64 bd 6a 8e bc bb 8f 11 d9 bc
       0.020519752 -0.05575211 -0.0057542818 -0.02649763
0002b0 32 ec 9f bc a9 b2 18 3c a5 67 04 bd 21 10 b6 3c
       -0.019521806 0.00931994 -0.032325406 0.022224488
0002c0 15 ec bd 3d 34 b3 6e bd 62 c4 ab bc b9 48 09 3c
       0.09273545 -0.05827637 -0.020967666 0.008379155
0002d0 57 fd 0d bd 67 cc 9c bd ea 71 4c bd 05 6f 09 3e
       -0.03466543 -0.07656174 -0.049913324 0.13421257
0002e0 a5 5b 73 3d 4f af 56 bd 80 92 1e 3d db 4b 57 3c
       0.05941357 -0.05241328 0.038713932 0.013140644
0002f0 a0 3e 08 bd 0f 07 6c bd dd 89 2f bd 0f 7f 33 3e
       -0.03326285 -0.05762392 -0.042856086 0.17528938
000300 56 0b 8a 3a 3d ad bd 3c eb 0d db 3d c4 53 a6 3d
       0.0010531943 0.023153896 0.10696014 0.08121446
000310 da 3c aa 3c bd 7d e8 3c fb 59 73 3d 65 a4 68 be
       0.02078097 0.02838027 0.059411984 -0.22718962
000320 d2 2f 3e 3c ed d6 85 3d 33 de 55 3c 50 2a 59 3d
       0.011608081 0.065351345 0.013053465 0.053018868
000330 22 6d a8 3d 95 e0 41 3b e8 81 99 3d c2 a2 88 be
       0.082239404 0.0029583324 0.07495481 -0.26686674
000340 7b 86 97 3d a2 a9 88 3c 0f 92 4f bc d5 e1 95 3d
       0.07398697 0.01668245 -0.0126691 0.07318465
000350 95 1e 61 3d 31 50 65 3c 07 6f 12 3d d3 51 01 be
       0.054960806 0.01399617 0.035750415 -0.1262887
000360 51 3b 4f 3e 82 b8 0f 3d e2 dc 2c 3d bd c1 20 3d
       0.20237471 0.03508807 0.042202838 0.039247263
000370 fa 01 b2 3c c7 6a 91 bd 6c c6 7b 3d 3b c7 98 3c
       0.021729458 -0.07100444 0.061468527 0.018649688
000380 94 28 8b 3e 45 02 74 bb 8d 47 09 bd 29 03 48 3d
       0.27179396 -0.0037232798 -0.0335155 0.04883114
000390 9c b6 87 bd f1 92 9b bc 0a 72 2c 3d 57 f7 03 3e
       -0.06626627 -0.018990966 0.042100944 0.12887321
0003a0 60 d8 65 3e 40 70 a3 3d 9e fc 45 3d 57 14 a0 3d
       0.22445822 0.07980394 0.048336618 0.078163795
0003b0 e8 89 0d 3d 8f 6d 06 3d b5 bb 94 3d 4a 89 ad 3d
       0.034555346 0.032819327 0.07262365 0.084734514
0003c0 c9 ed 91 bd 75 69 e3 3d 35 96 e0 3d d8 42 be bc
       -0.07125432 0.11104099 0.1096615 -0.023225233
0003d0 bf 03 ca bc b8 ca 42 3d 06 37 b3 3d fc 9c d3 bd
       -0.02465999 0.04755661 0.08750729 -0.10332677
0003e0 c4 3f 91 bd 53 a8 a3 3d 02 17 b6 3d 20 0f 67 bc
       -0.070922405 0.0799109 0.08891107 -0.014102727
0003f0 03 cc 0e 3c 8a 6d c2 3d b0 14 95 3d 51 79 35 be
       0.008715632 0.09493549 0.072793365 -0.1772206

fc_hidden.bias f4 [32]
000000 34 05 ce bc 6f 95 ed bd 3f b8 05 3b 00 2e 9a 3d
       -0.025148965 -0.11600768 0.0020404009 0.07528305
000010 1b fd 9c bc 0f 16 89 3d 11 32 76 3d 0c d8 b4 bd
       -0.019163659 0.066936605 0.06010634 -0.0883027
000020 9f f9 4c bd 00 35 5d bd 89 c8 1c 3e b5 ba 52 3c
       -0.050042745 -0.054005623 0.15310873 0.012861897
000030 2a 98 97 3d e3 03 ac bd 29 0a 89 3d 01 a5 69 bd
       0.0740207 -0.08399179 0.06691391 -0.057042126
000040 7f 8c 07 3e 71 cc 98 3d 4f 56 d6 3c b7 23 07 be
       0.13237189 0.07460869 0.026164202 -0.13197218
000050 7d 93 5c 3e 3b 87 de 3d 27 44 24 be 0a b8 a5 bd
       0.21540637 0.10865637 -0.16041623 -0.08091743
000060 4a 27 b2 bd 52 dd 2d bd 08 a9 1f be 14 73 22 3c
       -0.086989 -0.042447396 -0.15591824 0.009915132
000070 cf 37 1c 3d 2f 6f de bb 98 2e 98 3d a2 c8 67 bd
       0.03813916 -0.0067881565 0.07430762 -0.056587823

value.weight f4 [1, 32]
000000 bc 5e 54 3c dc a1 84 be 83 bc b8 3d a3 07 d3 3d
       0.01296204 -0.2590474 0.09020331 0.10304191
000010 01 f8 3b 3e 7a 1c fb 3d d5 3c 19 3e ab d9 49 be
       0.18356325 0.12261291 0.14964612 -0.1971194
000020 2e cc 2c be 4f 9f 41 3e cc eb 47 3e b5 89 68 3e
       -0.16874763 0.18908428 0.19523543 0.22708781
000030 8c 61 4d 3e 57 02 f9 bd 9b c3 aa 3d 24 15 fe bd
       0.20056742 -0.121586494 0.0833809 -0.12406376
000040 03 c5 13 3e 9e b3 07 3e d5 93 28 3e 56 ee 9e be
       0.14430623 0.13252112 0.16462643 -0.3104121
000050 58 da b3 3d a5 63 ed 3d 24 97 10 be 53 d7 69 be
       0.0878188 0.11591271 -0.14120156 -0.22836046
000060 73 a9 64 be 65 3f 2a be 2b cb b3 be ed e8 fb bd
       -0.22330265 -0.16625746 -0.35115942 -0.123002864
000070 6f 71 95 3d 85 3f 2a be f9 b6 0c 3e 9f b9 0e be
       0.07297026 -0.16625793 0.13741674 -0.13937996
