value network/asterix.pt (torch, 68631 bytes, 5 tensors)

conv.weight f4 [8, 3, 3, 3]
00000000: 7233 943f 95c4 993f 4c08 ce3f 5166 0b40
00000010: 0fbd 0040 d0e3 f03f fd6a c83f a3dd c43f
00000020: 236d c73f b8eb 36bf 201c 9c3d 2e7b c03e
00000030: c7fb 2dc0 56fe 98bc b7b2 fd3e c723 9bbf
00000040: e979 d0bd 1321 bc3e d7b2 bebd 6fb7 b5bd
00000050: 9d59 afbd fa3e 92bc 607e fb3c d3dd 3d3e
00000060: 8915 f5bd ef11 1b3e 3006 dc3c ec19 84bd
00000070: 2ba3 3dbd afdc 0b3e 2111 1b3d 6c1e 783c
00000080: 88de 833e e12a 2cbd 6ba1 18be 51cf 46be
00000090: 14bc 223f 8de3 b5bd 5fbe 2e3f 05ba 403f
000000a0: 796f db3d 8728 a83e dbc6 383f 09d8 583d
000000b0: 88bf 6b3e 9404 2f3d 025b 993d fe23 483e
000000c0: b285 e9bd de00 ef3c 686c 36be 14ab 113b
000000d0: 559e 80bd c838 323e 0e31 ae3f 70e8 493f
000000e0: 4e12 913e 8651 b83f e304 943f 0220 8c3f
000000f0: 7716 983f 1b49 2b3f c710 5a3f 6462 913e
00000100: 1bb5 d83c e1e3 223d ad07 bb3e 374e e6bd
00000110: 3561 9fbf 617d 003e 8cc9 8a3d bce7 13bf
00000120: 2316 273e c9a4 1dbe 0528 ca3d a1bc cdbd
00000130: af32 ae3d 9925 943d ab84 91bd 4728 883d
00000140: 6d34 32be 5722 d4bd 3565 b8be b983 cb3e
00000150: c6c5 5e3f ab09 623f 8275 353f 527c c73d
00000160: 72d9 28be 3cab 603e 0760 07be 8241 cc3d
00000170: 1b63 a03e 8f10 923e a216 193d a869 b43e
00000180: 793e 78be ad39 0fbe 03f9 f93e 9a24 123e
00000190: 3cc6 d4bd b40a 29be 1a68 1b3e 2cff c83d
000001a0: 98e5 e33b defd 243e a8d2 48be 0028 d7bd
000001b0: 9be9 2d3f 13ac 413f 1c44 423f 4db4 a43e
000001c0: e2b6 6f3f f666 8f3f 43ba 7c3f 4d29 a23f
000001d0: d95b b13f 6306 42bf 35ec 86bd 015b aebe
000001e0: 8bfb 4bbf b02d 0e3e 36bb 88bf a0d1 71bf
000001f0: 7bdd 4bbd 77ce c0bf 8d28 dcbc 2122 18be
00000200: f65c 533d da3a 503d 7162 f1bd df68 113e
00000210: 7ba7 b0bd f80e 623d 5e1d 693d 065a 1b3f
00000220: bc8c 623e b0d1 163f 98dd 513f da86 1a3f
00000230: d346 d23e 2434 ce3e 51a0 053f 32fe 113f
00000240: bf46 793e 3e7e 95bb e296 50be 69d6 e1bb
00000250: 7f50 333d d300 06bf 516f cb3e ddde b73d
00000260: 6a32 d2be 5894 19bd 53d7 d33d 4792 ee3d
00000270: af16 09be c534 923d b959 c3bd a9ac 033e
00000280: 1932 03be 1009 29bd 45bc 2fbe 346a 553e
00000290: 484d c43e e07e adbd 61be 8f3e fefb 933e
000002a0: d686 9f3e bd55 a53e 1ffb 4b3d 179f f0be
000002b0: 1dcb 8c3d 2b1b 863e dbbf 32bf 8ca1 a93c
000002c0: 7bcb 8b3e 6341 9abe 1917 3f3e 894d 4ebd
000002d0: 6435 88bd 46a1 ddbd f62a ef3d cede fb3c
000002e0: 8ef8 b53d be8e 72bc ac5b d93d 3682 df3d
000002f0: 5db2 6bbe e8f8 3f3e 1660 3e3f 0177 063f
00000300: 4c2a b83e 75db 6c3e c708 ba3e 9dbc 913e
00000310: ec27 953e 5856 8e3f 3318 94be 1505 f43d
00000320: 254b d43d e3d2 8fbe fb3a 18be 7c5d ed3e
00000330: b32c 29bd c7c1 163e 2437 ec3e 0127 033c
00000340: 0570 e1bd 799c b33c 4bdc 46be 9d6b 85bd
00000350: 95f3 113e 39e1 9e3d 7bb6 1e3e 2537 34bd
1.15782 1.2013117 1.6096282 2.17812 2.0115392 1.8819523 1.565765 1.5380138
1.5580181 -0.7145343 0.07622552 0.3759398 -2.7184923 -0.018675964 0.4955041 -1.2120293
-0.101795025 0.36743984 -0.09311455 -0.08872878 -0.08562014 -0.017852295 0.030699909 0.1854165
-0.11966998 0.1514356 0.02685842 -0.06450257 -0.046298187 0.13658403 0.037858132 0.015143972
0.25755715 -0.04203308 -0.14905326 -0.19415022 0.63568234 -0.088812925 0.68259233 0.75283843
0.10714621 0.3284342 0.7217843 0.052940402 0.23022282 0.042728975 0.074880615 0.1954498
-0.114024535 0.029175218 -0.17814791 0.0022227215 -0.062801994 0.17404473 1.360872 0.78870296
0.28334278 1.4399879 1.1563991 1.0947268 1.1881856 0.66908425 0.8518185 0.2839538
0.026453545 0.039768104 0.36529294 -0.11245387 -1.245154 0.12547828 0.06776723 -0.57775474
0.16317038 -0.15394892 0.09870914 -0.10045744 0.08505761 0.07233734 -0.071053825 0.06648307
-0.17402811 -0.10358112 -0.36014715 0.39748934 0.8702053 0.88296 0.7088243 0.09740509
-0.16489199 0.2194032 -0.13220225 0.09973432 0.3132561 0.28528258 0.0373751 0.3523686
-0.24242581 -0.13986845 0.48822793 0.14271775 -0.10389373 -0.16507989 0.1517643 0.09814295
0.00695486 0.16112468 -0.19611609 -0.10505676 0.6793458 0.7565319 0.75885177 0.3216881
0.9363843 1.1203296 0.9872171 1.2668854 1.3856155 -0.75790995 -0.06588022 -0.34053805
-0.796807 0.13884616 -1.0682132 -0.9446049 -0.049771767 -1.5063008 -0.026874805 -0.14856769
0.051602326 0.050837375 -0.11786354 0.14200161 -0.08625694 0.055190057 0.056912772 0.6068424
0.22123998 0.5891371 0.8197875 0.6036202 0.4106966 0.40274155 0.5219775 0.57028496
0.24343394 -0.0045621684 -0.20370057 -0.0068920148 0.04377794 -0.5234501 0.39733365 0.08978055
-0.41054088 -0.037494987 0.10343804 0.11648994 -0.1338756 0.07138971 -0.095385976 0.12858833
-0.1281208 -0.04126841 -0.17161663 0.20841295 0.3834021 -0.08471465 0.28074935 0.28903192
0.3115756 0.32291976 0.049800035 -0.46996376 0.06874678 0.26192603 -0.69824 0.020706914
0.2730368 -0.3012801 0.18661155 -0.050366912 -0.066508085 -0.10821776 0.11678116 0.03074589
0.08885299 -0.01480454 0.10613188 0.10913508 -0.23017259 0.18747294 0.74365366 0.52525336
0.3596977 0.23130591 0.36334822 0.28464213 0.2913202 1.11201 -0.28924713 0.11915032
0.10365895 -0.2809058 -0.1486625 0.46360385 -0.041302394 0.14722358 0.4613582 0.008004905
-0.11007694 0.021925198 -0.19419973 -0.06514666 0.14253075 0.077578016 0.15499298 -0.043997902

conv.bias f4 [8]
00000000: a8ac cd3d af02 b2be 8b41 8f3e de71 263e
00000010: 0fab 793e a343 9e3e f631 e93d 7566 f53d
0.10042697 -0.34767672 0.27979693 0.16254374 0.2438166 0.30910978 0.113864824 0.11982433

fc_hidden.weight f4 [32, 512]
00000000: 0bcd a0bd d569 3bbd dbdf 213c abc6 1e3d
00000010: ab1a cd3a 11c8 1abd 87bd 12be fc18 afbc
00000020: 08fc b23c cd6e 2cbe 17c8 20bd 62ba e2bc
00000030: 2b63 e23b f931 e1bd 9756 adbd 9778 8d3c
00000040: 7e33 28be 0666 6dbd f1ef d7bd 4ccc bdbd
00000050: 0d40 403d c6df b03c 07da 37bd 4487 00bd
00000060: 3897 fcbd 4343 4a3c 35b2 66bd 06a4 f53b
00000070: 78ac 6b3d c488 61bd db27 75bc 3d0b 0abe
00000080: d725 84ba 28d0 c53c c048 b63c b6af 363d
00000090: 2602 273d 01ae 093c a62d 7ebd e681 1dbc
000000a0: 0518 92bd 2089 633d 8db4 6c3d b8b9 61bd
000000b0: 1567 8f3c 518f ddbd abfd 4f3d cb8c ac3e
000000c0: 2a58 1dbd 2fed 88bc 2369 bc3d 1eae bcbd
000000d0: 10ba 49be 5c76 98be a43d 8f3d e26b 633e
000000e0: 60fa 9dbd e13b 80bd 8882 e2bc e68a 2bbe
000000f0: 9ddc 83be 14ca 99be d9ff 513e 0f4e 673e
00000100: f179 6abe 2c0b 50bd bb3c 62bc 1330 7ebd
00000110: fc1e 9abc 6000 9dbd 5091 10bd 7fa8 17be
00000120: b2cf f9bd 4278 bebb 0b06 95bc 4cb5 97bd
00000130: 3e2b bcbd b5b9 3abd 8d08 36bc fe96 0fbe
00000140: b13e 16be 8f37 b0bd 0977 5abc e94d bbbc
00000150: a841 65bd 07da a5bd e31f 1cbd a6c5 91bd
00000160: 181c 11be 03eb 9dbd d2fa 15bd 1c85 9ebd
00000170: 22f9 edbc 8533 b7bb a18d 0abd bcb6 10be
00000180: d7f0 debd 1547 67bd 3026 7fbd 0b97 38bd
00000190: ba19 cdbd 0912 c7bb cf7e 9ebd 8c1b 99be
000001a0: 8431 113c 5653 9ebd ee1d c5bb 0f8b bbbd
000001b0: e64f 91bd 2350 30bb a329 00be af23 3cbe
000001c0: 3285 05bd e517 2bbd e0d0 abbd 6129 81bc
000001d0: 3ff5 7abc 6b7e bebc 7e45 ce3c 91a6 77bd
000001e0: 7a65 53bc e690 c3bc ddfd 8dbc d65c 9dbd
000001f0: 5dca 90bd 0b26 b1bd 893d 9dbc 3d05 a73d
00000200: e6e0 60b9 ba02 11bd d4f8 7e3c 0c93 a3bc
00000210: 2b35 d33c 931d 52bd 341a 98bd f8b2 d7bc
00000220: efa5 95bb b36b 8bbd 56c6 09bc 6006 0dbd
00000230: bd55 97ba 6529 99bc bb70 dd3b 447d ddbd
00000240: 5a1b 443d 4e93 4cbd 3770 f63b c2cd dabc
00000250: ca21 7dbc 8671 02bc a3c2 693c fa97 933d
00000260: 7aab 503d 9b04 cdbc 50d7 05bd d67d babc
00000270: 61fc 063d 3247 1a3d 2cf9 82bc 94bb 643d
00000280: 04c2 773d 4228 26bc 4f4c 03bc fde2 2e3c
00000290: 01b6 803d 424a 67bc 6fbe 0f3b a59f c13d
000002a0: 03e1 5dbd dd0e 3bbb ab6b a33c 01d0 cdbc
000002b0: 7cb4 f83c 2ad3 c2bd 8553 2fbc 0b23 36bd
000002c0: 8974 66bc 2cbd 77bd 044b a13c b5b4 f1bd
000002d0: 5679 88bb bf4e 39bd 293a 553b 5f03 d2bd
000002e0: 28b1 a93b 19ea a9bd 2cde 663c c97a 49bd
000002f0: 8fbe 93bd 0024 5cbd 0095 153d 5a8e 25bd
00000300: f832 87bd ac49 28bc dfad 65bd 06bd 02bd
00000310: 92ce 34bc ce47 b6bc 9f3c 80bc 0f4d f4bc
00000320: 0a3d 54bd 47d3 f23c bf17 2fbb e699 2c3c
00000330: a0f1 b6bc 24c0 2bbd a625 85bc 1ca2 8cbc
00000340: 1290 763c 6284 e53a 84e6 2cbb c684 7a3b
00000350: d0b4 0fbb 45c7 013d c393 75bb 98d7 083d
00000360: 9164 443c ff63 e03c c7ff 653c aa82 a7bc
00000370: 789d 69ba 84a1 fcbc f584 f33c 48c5 bebd
00000380: 078f fc3c 4f7a ac3b dc59 003c c0bc 0cbd
00000390: f993 a1bc 6ffd 91bc 1be6 4e3d 0d14 8dbd
000003a0: f89f b4bc 04f2 49bd b04a f1bc bb8a 1abd
000003b0: f0cb 81ba 88e4 be3a 440e 32bd e9e1 01bd
000003c0: 91c9 45bc b35c 12bd 42c7 2ebd 25d8 ad3b
000003d0: 97ff 593c 9dc7 3dbd 4c2d 2e3d 229b a83c
000003e0: 9b84 dabc 02db 3bbc 6317 0d3c b403 8bbc
000003f0: 2f85 a7bc eeea 483c 5710 4fbc 651d abbb
-0.07851609 -0.045755226 0.009880031 0.038763683 0.0015648206 -0.037788454 -0.14330111 -0.021374218
0.021848693 -0.16839142 -0.03925332 -0.027676765 0.0069087944 -0.1099586 -0.08463781 0.017269416
-0.16425893 -0.057958625 -0.10543812 -0.09267482 0.046936084 0.021591078 -0.04488566 -0.031379
-0.1233353 0.012345138 -0.056322295 0.0074963598 0.057537526 -0.05506207 -0.014963116 -0.1348085
-0.0010082078 0.024147108 0.022251487 0.044601165 0.040773533 0.008403302 -0.062055252 -0.00961349
-0.071334876 0.055550694 0.057789374 -0.055108756 0.017505208 -0.10818351 0.050779026 0.33701167
-0.038414158 -0.01671466 0.09199741 -0.09212898 -0.19699883 -0.297778 0.06994179 0.22209123
-0.07713771 -0.06261421 -0.027650133 -0.16752204 -0.25754252 -0.30036986 0.20507754 0.2258837
-0.2289808 -0.050791904 -0.013808425 -0.062057566 -0.018813603 -0.07666087 -0.03529483 -0.1481037
-0.12197818 -0.0058126757 -0.018191358 -0.074076265 -0.09187935 -0.04558726 -0.011110437 -0.14022443
-0.14672352 -0.08604347 -0.013334044 -0.022864299 -0.055970818 -0.08098226 -0.038116347 -0.071177766
-0.14170873 -0.077108406 -0.036616154 -0.07740232 -0.02904946 -0.0055908584 -0.033826474 -0.14132208
-0.1088578 -0.056464273 -0.062292278 -0.04506592 -0.100146726 -0.006075148 -0.077390306 -0.2990383
0.008861903 -0.07730739 -0.006015531 -0.09157383 -0.070953175 -0.0026903234 -0.12515883 -0.18372987
-0.032597728 -0.041770834 -0.08389449 -0.015766801 -0.01531726 -0.02325364 0.02517962 -0.060461584
-0.012902612 -0.023872804 -0.017332966 -0.07683723 -0.07069848 -0.08649834 -0.019194381 0.08155296
-0.00021446086 -0.03540299 0.015562255 -0.019967578 0.025782188 -0.051297735 -0.07426873 -0.026330456
-0.0045669 -0.06807651 -0.008409103 -0.034429908 -0.0011545938 -0.018696496 0.0067578233 -0.10814908
0.047877647 -0.04994517 0.0075207013 -0.026709441 -0.0154499505 -0.007961636 0.014267596 0.072067216
0.050944783 -0.02502661 -0.03267604 -0.022765081 0.03295553 0.037665553 -0.015987955 0.05584295
0.060487762 -0.010141434 -0.008013799 0.010674235 0.062847145 -0.014116826 0.0021933576 0.09454278
-0.054169666 -0.0028542795 0.019948801 -0.025123598 0.0303595 -0.095129326 -0.010701065 -0.044467013
-0.01406587 -0.060483143 0.01968909 -0.11802045 -0.004164855 -0.045241114 0.0032535887 -0.10254549
0.0051785894 -0.08296604 0.014091056 -0.049189363 -0.072140805 -0.05374527 0.03651905 -0.04041896
-0.066015184 -0.010271471 -0.05607402 -0.031918548 -0.011035578 -0.022251036 -0.015653906 -0.0298219
-0.051816024 0.02964176 -0.0026717035 0.010534739 -0.022332013 -0.041931286 -0.016253304 -0.017167144
0.0150489975 0.0017510767 -0.0026382515 0.0038226112 -0.002192784 0.03168418 -0.0037472106 0.03340873
0.0119868675 0.027391432 0.014038033 -0.020448048 -0.00089117093 -0.030838735 0.029726485 -0.09314972
0.03082992 0.0052636038 0.007833924 -0.034359694 -0.01972388 -0.017821042 0.050512414 -0.0688859
-0.022048935 -0.04930307 -0.02945456 -0.03772996 -0.0009902697 0.0014563957 -0.043470636 -0.031709585
-0.012071983 -0.035732936 -0.042670496 0.0053053075 0.013305566 -0.046332944 0.042523667 0.020581786
-0.02667456 -0.01146579 0.008611533 -0.01696954 -0.02044925 0.012263043 -0.012638173 -0.00522201

fc_hidden.bias f4 [32]
00000000: a680 2bbc c277 b33e 4059 123a 23d6 023d
00000010: 4e50 533d 169f 3ebd 0683 1a3e c67f e8bc
00000020: b1fa f53c 79c1 43bb a06b 3a3d 09a0 57bd
00000030: aa04 3cbd efa7 a3bd bb14 98bd eba9 333d
00000040: 3ea8 b33d 94ed 35bd d6b5 0abe 05fb 8fbc
00000050: 5092 a4bd c423 83bd ee28 bfbd d0c7 2fbc
00000060: 0460 613c 4b60 093d 040f 053e 4b95 b0bd
00000070: 62cb f5bd 3b21 653c af18 463d 4894 853e
-0.010467684 0.35052305 0.00055827573 0.031942498 0.051590256 -0.046538435 0.15089044 -0.02838124
0.030026766 -0.0029869957 0.045512795 -0.052642856 -0.045902885 -0.07991015 -0.07425829 0.04386322
0.08772324 -0.044416025 -0.13545927 -0.01757575 -0.080357194 -0.06403306 -0.093339786 -0.010728791
0.013755802 0.033539098 0.1299401 -0.086222254 -0.12001683 0.013984974 0.048363384 0.26089692

value.weight f4 [1, 32]
00000000: 814b d9bd 1248 253e 9bb2 833c bce0 ec3d
00000010: 8dfe 74bd 8b5b 17be fefa 173e a77e 09be
00000020: 5d73 0fbe 9944 aaba d37d 933d 37ac 233d
00000030: b8d6 52be 2de4 3cbe 1cca d83d b457 6f3e
00000040: 57ed 0f3e 1beb 4dbe 4070 20be cabd 7bbe
00000050: 8b17 05be 482e 35be 41bf edbd 30dc 23be
00000060: 45fd 9f3d cb54 0a3e 7e8d 1c3e 702b 80be
00000070: f1bd 48be 3cb8 193d b69f d33d 59e9 4a3e
-0.10610104 0.16140774 0.016076377 0.11566302 -0.05981307 -0.14781015 0.1484184 -0.1342722
-0.14008851 -0.0012990414 0.072017334 0.03995916 -0.20589721 -0.18446417 0.10585424 0.233733
0.14055382 -0.20109217 -0.1566782 -0.24584118 -0.12997262 -0.17693436 -0.116087444 -0.16001964
0.07811979 0.13508908 0.1528835 -0.2503314 -0.19603707 0.037529215 0.10333197 0.19815578
