value network/asterix.pt (torch, 68631 bytes, 5 tensors)

conv.weight f4 [8, 3, 3, 3]
000000 c5 c3 ba 3e 9b e3 39 3e 69 13 e1 3d 14 6a 8e 3e
       0.36477485 0.18153231 0.1099003 0.27815306
000010 17 d1 a6 3e 75 14 ca 3e 57 3b 83 3e 3b 77 8d 3e
       0.32581398 0.39468732 0.2563121 0.27630028
000020 e4 43 cc 3e 5c 1d 0e 3d 67 57 30 3c c1 bb 60 3d
       0.39895546 0.034695968 0.010763026 0.054866556
000030 db 2d 5d 3e af e9 fa bb 12 cf 5c 3e 66 d9 5d 3e
       0.21599524 -0.007657252 0.21563366 0.21664962
000040 49 c4 a6 3d 93 f2 a3 3e a0 9c 4f bb 26 f4 b4 bc
       0.08142907 0.32021007 -0.003167905 -0.022089075
000050 d9 f6 ef bc f2 d1 93 3d 71 27 8e bc e3 24 2c 3e
       -0.02929251 0.07217778 -0.017352792 0.16810946
000060 65 f5 3c 3e 1f 70 27 be 87 86 0b be 52 bc d0 bd
       0.18452986 -0.16351365 -0.13625537 -0.10192169
000070 7c b4 82 bd b3 11 ba be 28 62 e6 bd 4c ba 87 be
       -0.06382081 -0.36341628 -0.112491906 -0.2650932
000080 a3 58 96 be d1 94 0e be 24 cf 06 3d 3b 6e ae bc
       -0.293645 -0.13923956 0.03291239 -0.021292796
000090 7b c1 01 3d d3 22 31 3e 90 a1 fc 3d 2d aa 91 3d
       0.031678658 0.1729844 0.12335503 0.071125366
0000a0 b3 4d 24 3d 55 69 1a 3c d2 92 02 3e fe f1 ea bc
       0.040113162 0.009424527 0.1275132 -0.028679844
0000b0 25 00 8b bd 57 e8 15 be b9 1b bd 3c a2 26 e3 3d
       -0.06787137 -0.14639412 0.023084508 0.11091353
0000c0 d9 af 2c 3e a4 00 e5 3d ed 9f e0 3c 63 83 37 3d
       0.16863956 0.11181763 0.027420009 0.044803035
0000d0 54 7b 95 3d c7 d1 67 bd 0d ae 48 bd d8 44 f3 bc
       0.072989136 -0.056596544 -0.048994113 -0.029695913
0000e0 4e 73 a9 bd 5c 9d 9b bd fe a6 e6 3c 25 95 16 bd
       -0.08273946 -0.07598373 0.0281558 -0.03676333
0000f0 20 6b 11 be fb 13 ee 3d c1 52 86 3d 46 e1 bf bd
       -0.14201021 0.11624905 0.06558753 -0.093691394
000100 bd 9a 66 bc 2b 48 8e bd 54 bd 13 be 0e 4a bf 3d
       -0.014074978 -0.06947359 -0.14427692 0.09340297
000110 54 b9 2c 3e 85 7f 11 be 75 8c 9a bd e5 dc e1 3d
       0.16867572 -0.14208801 -0.07546321 0.110284604
000120 0e e1 f8 bc 04 60 d2 3c b0 9b 1d be 72 ff 67 3d
       -0.030380752 0.02568055 -0.15391421 0.056640096
000130 30 df dc 3d fe 7c 45 be db 87 c1 bd 22 95 53 be
       0.10784757 -0.19285962 -0.094497405 -0.20662358
000140 33 ec b2 b9 dd a2 0f be ee 8b 32 bd e0 ae 94 be
       -0.00034126788 -0.14026971 -0.04359048 -0.2903967
000150 4a 64 92 be 0f 9d 1d be cf 45 4a be 21 3f ff bb
       -0.2859214 -0.15391944 -0.19753192 -0.007789508
000160 9a a2 a6 be 62 33 21 be 68 7d 88 be 98 00 c7 bd
       -0.3254593 -0.15742257 -0.26658177 -0.0971691
000170 b7 54 59 bd 74 55 1f be 0b 6b b5 3d 61 13 08 3e
       -0.053059306 -0.15559942 0.088583075 0.13288642
000180 59 3a a6 be a9 34 28 bd 20 f6 27 3e f0 40 d6 3d
       -0.3246639 -0.041065846 0.16402483 0.104616046
000190 60 cb 0f be 2f ec c1 bd 1a ad ee bd 63 4c 69 3d
       -0.14042425 -0.094688766 -0.1165411 0.056957614
0001a0 b0 1a 88 bc 36 50 bc bb 55 d8 b5 bd f7 a2 bb 3d
       -0.016614288 -0.0057468666 -0.08879153 0.091619425
0001b0 ae 0a 10 3f 52 bb f1 3e 8f 75 75 bd 61 ac 12 3f
       0.56266296 0.47213227 -0.059926566 0.5729428
0001c0 ae 3f 85 3e e5 aa c1 bd 6f 87 e9 3e 7e 1e 91 3e
       0.26025146 -0.09456424 0.4561114 0.28343576
0001d0 c4 9a 35 be 33 27 02 3e 21 2d 0d 3e 5e 03 3a bd
       -0.1773482 0.12710266 0.13786747 -0.045413367
0001e0 a8 96 db bd c8 a5 0d 3e df 14 4d be d3 35 19 be
       -0.10722095 0.13832772 -0.20027493 -0.14961939
0001f0 db 9a 93 bd a8 23 b5 be ad d4 36 3c 68 ec e3 3d
       -0.07207271 -0.35378766 0.011159104 0.11129075
000200 fd 0d 1b 3b ea a8 f6 bd 27 6b cf bc 56 89 a9 3d
       0.002365946 -0.120439366 -0.025319649 0.08278148
000210 ee 8f 14 bd 4e b3 3b 3e d0 e0 30 be 16 fe c8 bd
       -0.036270075 0.18330118 -0.17273259 -0.09814088
000220 63 87 a9 3e 90 6e 5e 3e 42 7a 8d 3e 4f 4e 2b 3e
       0.33111104 0.21721864 0.27632338 0.16729091
000230 d6 54 88 3e 9d 08 8b bd 6a 0f 9d 3e 7c 11 37 3e
       0.26627225 -0.06788752 0.30675822 0.17877764
000240 0a fc 93 be f5 08 09 3b e9 5f 3e be 7c 21 a8 be
       -0.28903228 0.002090988 -0.18591274 -0.32838047
000250 7a 94 fa 3c 2b 0e c8 bd 97 94 81 be de 85 21 3e
       0.030588377 -0.09768327 -0.25308678 0.15773723
000260 6b c2 eb bd 1a 1c 98 3d 8c 31 34 3e 41 10 04 3d
       -0.11511692 0.07427235 0.17597026 0.032242063
000270 22 f1 13 be 12 33 bc bd 77 1d 6a bc 53 fc 0d bd
       -0.14447454 -0.091894284 -0.0142892515 -0.034664463
000280 c7 be ab 3d 42 b1 d3 bc 50 04 e7 bd 73 da fc bd
       0.08385997 -0.025841359 -0.112801194 -0.123463534
000290 af 5b 63 3e 7c 74 85 bd 6f 25 3a be 7c 96 14 3e
       0.22202943 -0.06516358 -0.18178342 0.1451053
0002a0 b2 2a 8e be ce c0 f1 bd ff 63 a5 3d 3b 77 b2 bd
       -0.2776695 -0.11804353 0.08075713 -0.08714148
0002b0 6e 3a 02 be 88 fc 1f 3e 70 37 2d 3e b3 aa b2 3c
       -0.12717602 0.15623677 0.16915679 0.021809911
0002c0 ac 7c 0c 3e 14 01 7a be e0 64 e9 bc 21 ec 7b 3e
       0.13719434 -0.24414474 -0.028490484 0.24601795
0002d0 70 0c 11 bd 0c b9 0f 3b 3c 88 0c be 01 0c 33 be
       -0.035412252 0.0021930365 -0.13723844 -0.17485048
0002e0 ca b0 3c 3e 8e 00 17 3e 2f 14 b9 3d 94 e8 a9 3d
       0.18426815 0.14746305 0.09037053 0.08296314
0002f0 a6 e6 c5 3d 00 bc c2 3d 0d 92 5b 3e 65 ce 31 3e
       0.09663133 0.095085144 0.21442433 0.1736389
000300 19 94 8a 3e 1e a9 5b 3c 77 12 91 3d 34 90 a5 bd
       0.27066115 0.01340702 0.070836 -0.08084145
000310 92 67 8e bb 73 88 4f 3d f0 0b 6e 3e 26 b5 12 3e
       -0.0043458426 0.050667237 0.23246741 0.14326915
000320 b8 21 63 3e a1 74 61 3e 74 15 ed 3d 90 32 81 bd
       0.22180831 0.22017147 0.115763575 -0.06308472
000330 69 d2 c6 bd c6 ed 07 3e 8f 16 93 3e 9f 0d cc bd
       -0.09708101 0.13274297 0.28728148 -0.099635355
000340 ef ee 2b 3e 79 f4 09 bd 76 1d fc bd 26 c8 66 bd
       0.16790365 -0.033680413 -0.12310307 -0.05634322
000350 e7 a5 0a 3e bd 05 25 3e 8c d7 2f 3e 69 c8 e8 3d
       0.13539849 0.1611547 0.17172068 0.1136635

conv.bias f4 [8]
000000 6c 4b 93 bc 67 7b dd bd 07 2d 1a 3e 35 eb f1 bc
       -0.0179803 -0.10814553 0.15056239 -0.0295311
000010 7b cd cc 3d 4e 5a 44 3e 46 c8 3e be d6 ff aa bc
       0.1000013 0.19175074 -0.18631086 -0.020873945

fc_hidden.weight f4 [32, 512]
000000 da bc 12 3d 6f 9e c0 bc 77 cf 7b bd 1b 0e f6 bc
       0.035824634 -0.023513047 -0.06147715 -0.030036023
000010 1a ec b8 bc 2c 55 90 3b 3e 04 f0 3b 11 a2 91 3d
       -0.02257352 0.0044046845 0.0073247245 0.0711099
000020 d5 b4 2f 3c 58 9a 80 3b 4a 7e a3 3c 94 3f f8 3b
       0.010724266 0.003924649 0.01995768 0.0075759385
000030 3d fd 87 3b 3c 16 ab bc 3b b0 bb 3c c7 17 b0 3c
       0.0041500614 -0.020884626 0.022911182 0.021495713
000040 d4 09 1b 3c a2 33 ac 3c 90 c5 36 bc c1 f6 b2 bc
       0.009462792 0.021020714 -0.011155501 -0.021846177
000050 3d c6 3f bd 4d f6 45 3c e1 29 2e bd c4 20 9d 3d
       -0.046819914 0.012082648 -0.042520408 0.07672265
000060 83 63 a0 3d ee cf 87 3c bd 64 4e bd b3 51 d9 bb
       0.0783148 0.01657864 -0.05038904 -0.0066320538
000070 73 91 1b bc e9 3e b8 bc 14 7b cc 3c e0 54 ba 3c
       -0.009495127 -0.022490935 0.024961032 0.02274555
000080 b0 51 94 3d 11 70 0f 3a 75 2a 07 3d 00 17 71 bd
       0.07242143 0.0005471716 0.032999475 -0.058859825
000090 09 20 73 3c 7f 76 dc 3c bc c2 07 3d 8a 7c af 3d
       0.014839181 0.026911972 0.033144698 0.08568676
0000a0 3c 5b 19 3b cf 45 24 3d 0b 3a 2b bd 39 30 57 bb
       0.0023400327 0.040105637 -0.0418034 -0.003283514
0000b0 b3 ed e4 3c ca b5 9d bb 00 1c 0a 3d 81 d2 c1 3c
       0.027945375 -0.0048129307 0.03371811 0.023659946
0000c0 17 63 77 3d 5b 1c e2 bc bd 75 9e bc 96 a3 83 3b
       0.060397234 -0.027601412 -0.019343251 0.0040173037
0000d0 ae 76 05 bd 53 e7 fd bc 09 56 08 bc c1 b7 c5 3d
       -0.032583885 -0.030994093 -0.008321294 0.09654189
0000e0 ab 87 06 3d 7d 70 17 3d 26 aa 1c bd cf c5 40 bc
       0.032844227 0.03697251 -0.038248204 -0.011765911
0000f0 50 6c 08 bb 8a f2 b2 3c 9d 30 3a bd 28 60 cf bc
       -0.0020816512 0.021844167 -0.045456517 -0.025314406
000100 bb 1e f6 3a 4b ac 2a 3d fd 57 dc bb 50 90 5a 3c
       0.0018777469 0.041668218 -0.006724356 0.013340071
000110 23 30 a5 bb 9f c0 fb bc 49 3f d0 bb 0c c2 03 3d
       -0.0050411387 -0.030731497 -0.0063552004 0.03216748
000120 68 b8 32 3b aa cf 29 3d 7d 38 9b 3c 18 7d 94 3b
       0.002727056 0.04145781 0.018947834 0.004531514
000130 b1 47 ac bc 3e d2 c0 3c 37 36 89 bc e2 1f 44 bd
       -0.021030279 0.023537751 -0.016749484 -0.04788197
000140 72 72 c3 3c 54 ca 15 3d db 54 2c bc 26 62 0a 3d
       0.023858283 0.03656991 -0.010518278 0.033785008
000150 e5 93 3f bc 58 83 f9 bc 04 18 02 bd 28 ad e9 bb
       -0.011692976 -0.030458137 -0.031761184 -0.0071312375
000160 57 16 09 3c df 7b 0c 3d 31 73 ff 3c a3 48 eb bc
       0.008367143 0.03429782 0.031182857 -0.02872116
000170 a1 72 fe 3c 7e 06 66 bc 83 f1 f9 bc b7 2b 8c bc
       0.031060519 -0.014039634 -0.03051067 -0.017110689
000180 7a 91 b6 3c 93 bc 0e 3d 0b 69 e5 ba 40 e4 b0 3c
       0.022286166 0.034847807 -0.0017502619 0.021593213
000190 06 b4 a8 3c 83 50 34 3d 24 ad 34 bd fb 66 32 bd
       0.020593654 0.044022094 -0.044110432 -0.04355524
0001a0 4d a4 50 bc 0b 06 12 3d 40 d3 6e bc 79 55 db 3c
       -0.012734485 0.035650294 -0.014576733 0.026774155
0001b0 86 e5 49 bc 8f f8 de bc b6 5c 03 bc 5f 00 98 3b
       -0.012322789 -0.027218131 -0.0080177095 0.004638716
0001c0 95 6b 2a bd 31 23 30 3c 58 d3 b1 3c b4 8e b5 bc
       -0.041606504 0.010750578 0.021707222 -0.022162773
0001d0 98 e0 05 bc 73 a1 ab bb 6c 1f 7b ba 39 ae c8 3b
       -0.008171223 -0.005237752 -0.00095795724 0.0061242846
0001e0 06 78 b6 3c 14 a6 25 3d 1d 3d 87 bc d7 2e 8f bc
       0.022274029 0.040441588 -0.016508633 -0.01747839
0001f0 bc 91 1d 3d dd 5d 38 3d 3f 9e e5 3c 0b 15 fa bb
       0.03846906 0.04501139 0.02802956 -0.007631903
000200 24 62 29 3c 22 f7 2a bd 8b ce 24 3d d5 1d e0 bc
       0.01033834 -0.04173959 0.040236037 -0.027357975
000210 fe 1e 2e bd 52 4a ff bc ce 61 1b 3d e2 7a 7e bc
       -0.042510025 -0.031163368 0.03793507 -0.015532227
000220 aa 12 2e bd b1 30 fc bc dd 33 66 3c 77 05 af bc
       -0.04249827 -0.030784937 0.014050451 -0.02136491
000230 71 b2 d8 3c 03 e5 c2 3c 9b 99 de bc 8c c0 1b bd
       0.026452275 0.023790842 -0.027172854 -0.038025424
000240 59 3a 46 bc ad 5a 6b 3b d5 d8 45 3b cb 2a fe bc
       -0.012098872 0.0035912201 0.0030189056 -0.031026265
000250 b3 40 ab 3c 7c 67 1d 3c db 53 2a bd 4b c9 04 bd
       0.020904874 0.009607192 -0.041583877 -0.03241853
000260 d8 c4 9f bb 33 f6 bc 3b 6e fe ff bc 6d 81 6a 3c
       -0.0048757605 0.005766654 -0.031249251 0.014313084
000270 fb 93 0e bd 65 64 03 bd 75 ed 6b 3c 08 61 15 bd
       -0.034809094 -0.032078166 0.014399876 -0.03646949
000280 bc eb 53 bb 74 db de 3c 3a 71 17 3d 9e cf 25 bd
       -0.0032336554 0.027204253 0.036973216 -0.040481202
000290 a4 42 89 3c 42 5a 16 3d 2d c0 ff bc e8 80 1c 3d
       0.01675541 0.03670717 -0.031219566 0.038208872
0002a0 9a b4 80 bc 60 50 1b 3d 08 71 95 3c 59 a8 0e 3d
       -0.015711118 0.03791845 0.018242374 0.034828518
0002b0 5e 9f 93 3c c0 fc 10 3d 9d 77 d1 bc 0e 61 db 3c
       0.018020328 0.03539729 -0.025569731 0.026779678
0002c0 6e af 68 3c 74 51 29 bd 61 81 95 3c 76 e5 24 bd
       0.014201982 -0.041337445 0.01825017 -0.040257894
0002d0 0b f7 19 3d fe d6 97 bc 21 5b ff 3c be f4 d7 38
       0.037589114 -0.018535133 0.031171383 0.00010297586
0002e0 dc 24 d0 3a e0 68 fa 3c 80 eb cd 3c ce 9a 99 3c
       0.0015880126 0.030567586 0.02513671 0.018750574
0002f0 3a 2f 81 3c ad a7 36 bd 08 2a ce 36 0f 56 e1 bc
       0.01576959 -0.0445935 6.1441715e-06 -0.027506856
000300 ab f3 41 bc 6b d8 00 3d 5b 95 a1 bc 5b c3 38 3d
       -0.01183788 0.031456392 -0.019724539 0.04510818
000310 a5 e6 15 3c f1 d2 f1 3c e0 7a 6f 3c 56 8c ed 3c
       0.009149228 0.02951953 0.014616698 0.028997581
000320 89 5d bc 3c 66 a0 86 bb 68 34 eb ba 8e 93 4d 3c
       0.02299382 -0.0041084765 -0.0017944695 0.012547387
000330 9b a7 29 3c 5d 0f 23 3d 94 f3 88 bc ab 8b 2b 3c
       0.010354902 0.039809573 -0.01671771 0.010470311
000340 2d b2 e5 bc 7f f8 f3 bc a0 8a fb 3c 57 96 0d bd
       -0.028039062 -0.029781578 0.03070575 -0.034567203
000350 6a 31 98 3c cd 79 de 3b 64 db 10 bd cf a2 e2 3c
       0.01857825 0.006789422 -0.035365477 0.027665524
000360 3e 63 82 3c a1 c1 18 3d 5b d1 ce bc fd 20 f9 3c
       0.015916463 0.037294034 -0.025246313 0.030411238
000370 f3 ff f1 3c b3 17 f4 3b b4 78 26 3d 9f 33 f5 ba
       0.029540991 0.007449114 0.040642455 -0.0018707401
000380 ca d6 34 3d cf 08 c1 3c 94 23 d7 bc 46 37 bf bc
       0.04415015 0.02356377 -0.026262082 -0.023341786
000390 c9 10 ae bc 9e 59 a2 bc 6d c2 b2 bc 40 4d db 3c
       -0.021248238 -0.019818123 -0.021821225 0.026770234
0003a0 51 3e 37 3d f1 75 2b 3d 61 21 79 bc 8b 7d 62 bc
       0.044737164 0.041860525 -0.015205712 -0.013823877
0003b0 4e 7c 08 bd d0 e1 29 3d f9 44 ce 3b 94 f0 13 bd
       -0.03332167 0.041475117 0.0062948433 -0.036118105
0003c0 ba 00 99 3c 96 24 82 3c 44 86 32 3b e8 19 38 3d
       0.018677104 0.015886586 0.0027240673 0.04494658
0003d0 45 af e1 3c c4 40 47 3c d4 65 7d bb 7c 8a 05 3b
       0.027549395 0.012161437 -0.003866543 0.0020376733
0003e0 39 42 d1 3c 7b 34 6b 3c 26 09 60 3b df b7 90 3c
       0.025544273 0.014355774 0.003418514 0.017665802
0003f0 b8 c9 46 3d ba 24 f1 3c fe cb b6 3b 03 54 33 bc
       0.048532218 0.029436458 0.005578517 -0.010945323

fc_hidden.bias f4 [32]
000000 fd 28 a9 3c cd 85 c4 bb 9c d9 ac 3c 6f b0 1c 3c
       0.020649428 -0.0059973956 0.021099858 0.009563549
000010 7c 23 0c bd c0 41 5b 3d 0d fb 09 bd 08 82 1d 3b
       -0.034213528 0.0535295 -0.033686686 0.0024033803
000020 2f b9 65 3c 6b 45 6f bc a6 da 88 39 89 13 54 3c
       0.014021202 -0.014603953 0.00026102847 0.012944111
000030 d0 91 c2 bc 6f 58 52 3d e3 aa 15 3d 64 f7 fc 3c
       -0.02375117 0.051353868 0.036539923 0.030879684
000040 fd 3d 54 3b ce f1 f4 3b 74 99 08 3d 86 b0 86 3b
       0.003238558 0.0074751144 0.03334947 0.0041103987
000050 5c 3d 25 3d 1c ea 37 bc ad 59 77 3c 20 3d b2 bc
       0.04034172 -0.01122525 0.015097064 -0.021757662
000060 18 68 10 3d 7c 09 dc ba 38 90 89 3a 93 ed fd 3c
       0.03525552 -0.0016787495 0.0010495251 0.030997073
000070 ca 47 0e bd 26 ed 28 3c 06 87 2c bd 94 5c 47 3d
       -0.034736432 0.010310447 -0.042120956 0.048672274

value.weight f4 [1, 32]
000000 01 51 ca bd 75 de 5c 3d 31 2a b5 3d d3 11 a0 bd
       -0.098787315 0.05392309 0.08845938 -0.078159
000010 b7 5c e0 3d ce 7c 20 3e 9d 39 97 bc 39 e4 1a 3d
       0.10955184 0.15672609 -0.01846009 0.037815306
000020 c7 ba cc 3b 4e 47 ae bd 23 91 35 3e 99 95 6a 3d
       0.0062478515 -0.08509694 0.17731147 0.057271574
000030 10 b4 c9 3c c8 ec 0b 3e fb 08 af 3d 09 26 01 3e
       0.024621993 0.13664544 0.08546635 0.12612166
000040 6d f6 1c 3e 8c dd 39 be 5e 43 f1 bc fa 84 a2 3d
       0.15328379 -0.1815092 -0.029451068 0.079355195
000050 ab 6e 7c 3d c1 0f 22 3e a8 c9 13 3d 06 c6 2a 3e
       0.06162898 0.15826322 0.036080986 0.16677102
000060 d6 36 94 bd 72 76 c8 bd 48 a9 1b 3d 1b 70 84 bd
       -0.072370216 -0.09788217 0.038003236 -0.06466695
000070 21 32 2f 3c ae e0 f5 bd 19 b1 d4 bd e8 7a 19 3e
       0.010693104 -0.12005745 -0.10385341 0.14988291
