value network/asterix.pt (torch, 266071 bytes, 5 tensors)

conv.weight f4 [8, 3, 3, 3]
000000 94 7b c8 3e 6e f3 e7 3e 03 7d f4 3e 1c 56 02 3f
       0.39156783 0.4530291 0.47751626 0.5091264
000010 45 b5 0d bf 76 bc 06 bf 00 0b a5 be 08 e6 76 3e
       -0.5535472 -0.5263132 -0.32234955 0.24111187
000020 0b 3f 85 bd 65 06 0e bf ed 04 31 bf d7 ae b7 be
       -0.06506165 -0.5547851 -0.6914814 -0.3587558
000030 4a 5d 42 bf 05 82 88 bb 89 11 9a 3e 13 2e 8e be
       -0.759236 -0.00416589 0.30091503 -0.27769527
000040 65 ce ba bd 60 82 0e be c5 39 3b 3e 47 b2 7a bd
       -0.09121398 -0.13916922 0.18283756 -0.061205175
000050 35 ed ad 3d c3 7a 1f be 75 1e 26 be 98 f7 41 3e
       0.08492509 -0.15574174 -0.16222556 0.18942106
000060 57 08 00 3e 24 9f 35 be c2 44 8b bc 6a 21 da 3d
       0.12503181 -0.17736489 -0.01700056 0.106509045
000070 67 a5 77 3d 6a 63 ea 3d cd 1a b6 3e 3e fd 50 3e
       0.060460474 0.11444743 0.35567322 0.20409104
000080 20 0b e2 3e 5b fd da 3e fb eb c8 3e 60 31 d6 3e
       0.44149113 0.4277142 0.3924254 0.41834545
000090 ac 35 29 bd 25 48 16 bd b5 88 bb 3e c8 3b 94 3d
       -0.04131095 -0.036689896 0.36627737 0.07237965
0000a0 91 80 ab 3e b3 39 97 3d a1 3d 98 3e 32 5c bd 3e
       0.33496526 0.07384052 0.2973452 0.36984402
0000b0 bf 08 c0 3e 45 13 ae bb 81 e8 9c 3d 03 52 b6 bd
       0.37506673 -0.0053123557 0.07661534 -0.08902361
0000c0 94 68 8e 3b bb dc 47 3e d2 af 08 be e9 87 4d 3c
       0.004345963 0.19517796 -0.1334832 0.012544611
0000d0 0a 21 1c 3d 6a d8 1e be 4d 74 85 be e1 48 91 be
       0.038117446 -0.15512243 -0.26065293 -0.28375915
0000e0 42 4a a2 be 1c 28 1e be 33 46 f4 be c6 cf d0 3c
       -0.3169728 -0.15444988 -0.47709808 0.0254897
0000f0 a0 7a 14 be 63 e2 80 be 2a 5c c5 be e8 85 50 3e
       -0.14499903 -0.2517272 -0.38546878 0.20363581
000100 73 8a f7 bd 80 7f 37 bc c0 c6 dc be b0 aa 11 be
       -0.12086954 -0.011199832 -0.43120384 -0.14225268
000110 7e 2b b9 3e 0f b6 31 3e f7 06 c3 bd c9 c9 12 3c
       0.36165994 0.17354606 -0.09522813 0.008959242
000120 ad 0f a8 b9 90 55 a1 bd 01 3f 7a 3d 04 11 9e 3d
       -0.00032055136 -0.07877648 0.06109524 0.07718089
000130 3d 6f a9 3d 48 c2 a8 bd 6f 75 79 be 79 09 f8 3d
       0.0827317 -0.08240181 -0.24361204 0.12111182
000140 ea 04 e6 3d 9d 0a 6c 3d bf b5 41 3e 39 34 44 be
       0.11231406 0.05762731 0.18916987 -0.19160546
000150 0b 7a a6 3c 07 2c c6 bd bc fe 2a be 74 8e 87 bd
       0.020321866 -0.09676366 -0.16698736 -0.06618968
000160 bb b7 9e be 2d 4b 84 3d d4 ed 74 3f be 97 86 3f
       -0.3099955 0.06459651 0.95675397 1.0515058
000170 c3 3b 42 3e d7 a9 26 be 4f 95 81 3c 9a ac 40 3f
       0.1896811 -0.16275726 0.015818266 0.7526337
000180 fc 25 24 3f ce f8 6a be f6 5f 2f be c7 b9 09 3e
       0.6412046 -0.22946474 -0.1712645 0.13449775
000190 ba 9e c1 3d b0 ae bf bd c0 f6 33 be f7 7a 99 3d
       0.09454103 -0.09359491 -0.17574596 0.07494157
0001a0 e4 9a a4 bd da 79 e8 3d bb 23 c8 3d f2 d4 f7 bd
       -0.080373555 0.11351366 0.0977244 -0.12101163
0001b0 eb af 0a bf 0f 10 43 bf c8 77 dd be 90 a4 d3 be
       -0.5417468 -0.7619638 -0.43255448 -0.4133649
0001c0 5c f5 e9 be 19 d0 7f be c6 68 e2 be 1e 51 75 be
       -0.45695007 -0.24981727 -0.4422056 -0.23956725
0001d0 c0 1e 22 bf 0b f9 84 3e c2 85 e9 3e 2b de 29 bc
       -0.6332817 0.25971255 0.45609862 -0.01036791
0001e0 e4 05 e6 3e 17 65 13 3d ac 0d e9 3e 1f 92 c2 3d
       0.4492637 0.03598508 0.45518243 0.09500527
0001f0 94 e3 5b bc d0 a2 0b bf 3f a0 84 bd 50 b2 52 bd
       -0.013420958 -0.5454531 -0.06475877 -0.051439583
000200 55 70 d3 3d e1 67 06 be 27 2e 18 be f4 bd 32 3d
       0.1032416 -0.13125564 -0.14861356 0.043638185
000210 22 02 0a bc 65 5e f5 3d 1d 06 9e 3d e2 7e 3c 3f
       -0.00842336 0.11980895 0.0771601 0.7363111
000220 54 7b 74 be e0 d9 ab be 1f 0a 7c be 3c b7 8d 3f
       -0.23875171 -0.33564663 -0.24613236 1.1071544
000230 22 fc 95 be c0 2f cc bd 55 ea 69 be ba 98 14 3d
       -0.29293925 -0.09970045 -0.22843297 0.036278464
000240 10 d5 49 bf d4 7d 51 bf 53 1d 4a bf e4 2b fc be
       -0.7884073 -0.81832623 -0.78950995 -0.49252236
000250 ef f7 91 3e 7c f4 91 3e 6c b0 b7 be 6e 74 55 bf
       0.2850947 0.2850684 -0.35876787 -0.8338078
000260 a5 f0 47 bf 14 9d e9 bd 99 a1 2a be 9b 99 38 bd
       -0.7810157 -0.114069134 -0.16663207 -0.045068365
000270 fc e4 05 bd e5 57 2d 3e 6e 00 3c bd 9c d7 47 3d
       -0.03268908 0.1692806 -0.045898847 0.048789605
000280 52 00 14 bc 4b 43 1c 3e ed 4d 45 be 4e b4 8d be
       -0.0090332795 0.15260045 -0.19268008 -0.27676624
000290 0b 4e 9b be fe 4e 2b bf bc 30 78 bc d6 ca 6e 3e
       -0.3033298 -0.6691741 -0.015148338 0.23319563
0002a0 21 e5 e3 be 06 1c 68 be 3a 50 8e 3e fe 14 6b be
       -0.4451075 -0.2266694 0.27795583 -0.22957227
0002b0 48 35 ba 3e 9c c0 f5 3d 51 08 ba be fc a4 a0 3e
       0.36368775 0.11999628 -0.3633447 0.31375873
0002c0 f7 a8 9d bc e0 42 1a 3f 1f 2c 09 bf a0 9f d7 3e
       -0.019245608 0.60258293 -0.5358295 0.42113972
0002d0 b5 2e 86 3c 39 77 d7 bd 07 7c 92 3d 52 86 0a 3e
       0.016379694 -0.10520787 0.071525626 0.13527802
0002e0 e2 33 27 be 73 6e 3a be 47 b0 da 3d dc 14 d2 3d
       -0.16328385 -0.18206196 0.106781535 0.10257885
0002f0 4b a8 21 3d b0 00 91 be dc 1e 97 be 42 22 a0 be
       0.039467137 -0.28320837 -0.2951573 -0.31276137
000300 af f5 87 3e 57 86 30 3f 47 7c 14 3f 21 ab 9c 3e
       0.2655463 0.68954986 0.5800213 0.3059931
000310 d5 06 95 3e 54 70 b6 3e b6 f6 3c 3e 6c 33 4d 3e
       0.29106775 0.35632575 0.18453488 0.20039147
000320 aa 31 8c 3e e7 50 27 bf 4e 47 8b be e2 db 3e bf
       0.2738164 -0.6535782 -0.2720284 -0.74554265
000330 56 b4 7e be 2a 2e 72 be bc 93 8a be 8c 0a de bd
       -0.2487348 -0.23650423 -0.27065837 -0.108418554
000340 db 56 f0 bd 36 d7 d3 bd bd 01 18 3e af 67 0d 3e
       -0.11735316 -0.103437826 0.14844413 0.13809083
000350 2b 19 46 bd 44 e0 cf bd 57 ca 90 bc ff 29 42 3e
       -0.048363846 -0.10150197 -0.017674608 0.18961333

conv.bias f4 [8]
000000 18 f4 26 3e db b4 82 3d ed af 40 bd 10 f4 7c be
       0.16304052 0.06382152 -0.047042776 -0.24702477
000010 fc 7d be 3d 23 a2 83 3d 16 59 5c bc 37 e0 10 3e
       0.09301373 0.064274095 -0.013448974 0.14148031

fc_hidden.weight f4 [128, 512]
000000 21 2d 5f bc d3 86 c7 3c 21 72 b5 3c db c4 4d bb
       -0.013621599 0.024356281 0.022149147 -0.0031397853
000010 c6 4a 02 bd 75 4b 14 3d 73 22 38 bd 9d 68 0c 3d
       -0.03180959 0.036204774 -0.04495473 0.034279454
000020 42 72 16 3d 4c 21 d6 bc fb 90 24 bd 68 fa 12 bc
       0.03673006 -0.026138924 -0.040177327 -0.008970834
000030 79 76 95 bd b6 11 ab bc 43 cb 81 ba 9e 10 67 3d
       -0.072979875 -0.020882469 -0.0009902496 0.05641233
000040 fc 8a ef 3d 89 f0 2e 3c 04 6d 09 bd 27 70 a4 bd
       0.11696431 0.010677465 -0.03355123 -0.08029204
000050 c2 be cf 3c b3 9c 64 bd d9 a7 1f bd 78 37 35 3d
       0.025359515 -0.055813503 -0.03897843 0.044242352
000060 5a e4 21 bd c7 d4 a9 3b 1c f6 32 bd f3 c5 89 bc
       -0.039524414 0.0051828357 -0.04369174 -0.016818022
000070 7e cb 21 bc 03 0d 8d bd 17 92 b8 bb c1 fc 51 3c
       -0.0098751765 -0.068872474 -0.0056326496 0.012816609
000080 8b e9 26 3c 5a 15 67 bd 2c 9a 90 bb 6b d8 05 bd
       0.010187517 -0.056416847 -0.00441291 -0.032677095
000090 f3 a3 87 bd 81 0c 81 bd 04 13 e6 3c 0c a4 9e bc
       -0.06623068 -0.06301213 0.02808524 -0.019365333
0000a0 15 1f cb 3b 88 75 a1 3d 61 87 a2 3b d1 94 ea bd
       0.0061987736 0.078837454 0.004959986 -0.11454166
0000b0 7c 9d 17 be 11 94 6e bd 49 27 fb bc de bf 13 3c
       -0.1480617 -0.058246676 -0.030658381 0.009017913
0000c0 a6 a8 e0 3c 28 11 b0 bd d2 f4 a3 bc c7 13 9a bb
       0.027424168 -0.08597022 -0.0200142 -0.0047020647
0000d0 0f 93 95 bd 61 ed 37 bd de 89 8c bc 75 f3 db 3c
       -0.0730344 -0.044904117 -0.017155584 0.026849488
0000e0 40 da a2 3c d7 4a 50 3c 6e af ba bc d5 c6 9b bc
       0.01987946 0.012713156 -0.02278873 -0.019015709
0000f0 fa 9e a6 bd 29 09 86 3b 3b 23 ac 3c f4 84 16 bb
       -0.08135791 0.0040904474 0.021012893 -0.002296743
000100 a7 70 e4 3c e4 37 08 3d d4 7a 53 bd 1d eb 24 3d
       0.027885748 0.033256426 -0.05163081 0.040263284
000110 90 47 a4 3c 20 bb 28 bc 92 50 05 3e 83 9a 0e 3e
       0.020053655 -0.01029852 0.13019016 0.13926129
000120 f2 d6 ee 3d 1e 49 0b 3e 52 45 82 3d e4 0a 13 3d
       0.11662091 0.1360211 0.06360878 0.035899058
000130 43 0a f4 3d bd 35 94 3d 91 39 52 bd 71 84 01 bd
       0.1191602 0.07236812 -0.05132443 -0.031620447
000140 5a 35 81 3e 0f b6 74 bd d3 c0 18 bd 9f 31 bd bc
       0.25236017 -0.059743937 -0.037293267 -0.02309495
000150 aa 9e 83 3a 3d 20 ba 3d 15 b4 82 3c ac 83 00 3e
       0.0010041792 0.0908818 0.01595501 0.12550229
000160 8f 73 18 bd f3 c2 0b be 9a 52 cd bd 24 d2 8b 3d
       -0.03721958 -0.13648586 -0.100255206 0.068271905
000170 d8 8b 5f 3d d8 ce ae bd 6e 7c cf 39 56 d5 23 3e
       0.054576725 -0.08535546 0.00039574824 0.1599935
000180 7a aa 3a 3d f5 cd 70 be 37 ad 06 3d 0b 0d 54 bc
       0.045572735 -0.23516066 0.032880034 -0.012942563
000190 58 8a 28 3e b7 c5 0e 3d 94 ac 6c 3d f2 fb 1e 3e
       0.16459024 0.034856524 0.05778177 0.15525797
0001a0 f6 56 56 3d 98 af b2 3d 17 41 2d bd 81 85 cb 3d
       0.052329026 0.08724898 -0.042298403 0.09937573
0001b0 f2 4e e5 3d 4f d3 17 3e b7 fa b4 3d 95 19 37 3c
       0.11196698 0.14826702 0.088368826 0.011175533
0001c0 03 b8 0a bc ea c8 4a bd e7 2d d7 bd e9 ef 95 3c
       -0.008466723 -0.049508013 -0.10506802 0.018302875
0001d0 39 8f 68 3d 1f 78 08 3e c1 5c 27 3e 9c 16 aa 3a
       0.056777213 0.13327073 0.16343977 0.0012976709
0001e0 bc 6f 04 bc 90 48 c3 bd 93 d9 f0 bd fc bd 06 3e
       -0.00808328 -0.095353246 -0.11760249 0.13158411
0001f0 7e 4f 7f 3d 41 28 04 3e af 4d 24 3d d5 71 62 be
       0.06233167 0.1290598 0.040113147 -0.22113736
000200 72 83 90 bc 68 9d 22 bc 63 36 5b bb 56 11 2a 3c
       -0.017640803 -0.009925224 -0.0033449165 0.01038011
000210 9a 0a 92 bc 5f d8 ab 3b e8 f0 bd 3c 21 ac 8e bc
       -0.01782732 0.0052442993 0.023186162 -0.017416062
000220 16 e1 04 bd 7e dd 2c 3d 8f 93 17 bc 20 e8 82 3c
       -0.03244122 0.04220342 -0.009251489 0.015979826
000230 5d 96 5b 3d 31 11 86 bb 21 63 cd bc b8 3e 50 bb
       0.053610194 -0.004091405 -0.025071682 -0.0031775665
000240 6d fb de bb ae 56 1a 3d eb 11 d2 bc 15 28 17 3c
       -0.0068048746 0.03768032 -0.02564331 0.009225865
000250 aa 2e 1b bd da 3f 06 bd d2 32 78 bc ae 72 3b 3c
       -0.0378863 -0.032775737 -0.015148835 0.011440916
000260 1b 07 cf 3c 2b 6f 0e 3d 89 24 29 3d f3 8c 06 3d
       0.025271943 0.034773987 0.04129461 0.032849263
000270 5d f7 85 bc aa 01 c7 3c 43 08 40 3b 42 14 ec 3b
       -0.016353304 0.024292786 0.00293018 0.0072045634
000280 28 42 6a bb 8b e3 08 3d 50 96 9e 3c 94 f7 9c b8
       -0.0035744999 0.033420127 0.019358784 -7.484775e-05
000290 2f 94 9b 3c c8 1c 68 3c 4c 0a ec bc 06 47 b1 bb
       0.018991558 0.014167018 -0.028813504 -0.005410078
0002a0 62 32 31 3b dc b4 04 3d f4 7a cd 3c 63 70 39 3d
       0.0027038087 0.032399043 0.025083043 0.045273196
0002b0 5d fc 12 3d 91 d1 c2 bc 10 90 ba bc bd bd cd 3b
       0.035885204 -0.02378157 -0.022773772 0.006278722
0002c0 a1 bf 3a 3d 78 ea 14 3b f3 a1 fa 3c cd aa 32 3d
       0.045592908 0.0022722762 0.030594802 0.04361992
0002d0 ec 88 a6 3c f5 0f f6 bc 39 fd ef 3c c4 b6 21 bc
       0.020328961 -0.030036906 0.02929555 -0.009870235
0002e0 10 58 b2 3c bf 98 e0 3c 3b 3f 0b 3d ce 2f fa 3c
       0.021770507 0.027416585 0.03399585 0.030540373
0002f0 5b 9f c2 3c 09 a5 9a 3c cb 8b eb 3c 36 32 e1 3c
       0.023757627 0.018877523 0.028753182 0.027489763
000300 ee 31 ce 3c a0 fa 1f bd ff 10 ca 3c 13 b8 ab 3c
       0.025170293 -0.039057374 0.024666307 0.020961797
000310 65 30 cb 3a d6 75 b5 bd b1 b2 5d 3d e5 33 21 3d
       0.0015502094 -0.08860366 0.05412549 0.03935613
000320 ca c0 1c 3d 2e 35 0f bd c8 68 af 3c d0 04 a8 3c
       0.038269795 -0.034962825 0.021412268 0.020510107
000330 97 63 7d 3d 44 6e 6e 3c 8a 6c 4c 3d 02 a2 39 bd
       0.061862554 0.014552657 0.0499082 -0.04532052
000340 31 40 11 3d 9c 0a 82 3d 40 4b d4 3c 9e e5 03 bd
       0.03546161 0.0634968 0.025914788 -0.032201402
000350 69 db 1e 3d 1e e6 2f 3d de 46 ba bc 60 89 41 3d
       0.038783465 0.042944066 -0.02273887 0.04725015
000360 01 ab aa bb 10 9d d0 bc 25 c9 2e 3c 5a af d2 bc
       -0.0052083735 -0.025465518 0.010668074 -0.02571838
000370 6f e5 17 3d dc 83 fc 3c b9 3d 12 bd 8a 3e fa bb
       0.03708404 0.030824594 -0.035703395 -0.00763685
000380 ab 17 40 bd 2f 1f a4 bb ed f3 46 bb 39 60 17 3d
       -0.04689757 -0.0050086 -0.0030357793 0.036957
000390 86 fb 3a 3c 22 92 aa bc 1c a0 58 3b 23 d3 ba bc
       0.011412507 -0.020821635 0.0033054417 -0.022805756
0003a0 7a fb 31 3d 25 56 23 3c ef 56 1c 3c 3f 26 9c bc
       0.043452717 0.009969269 0.009542211 -0.019061206
0003b0 be c3 09 bc 31 43 e5 3b 09 7b 49 3d 3d 2c 7a 3d
       -0.008408485 0.006996535 0.0491896 0.061077345
0003c0 14 08 08 3c 0d 8e 4c 3c 40 24 9b 3c ac 4c 67 3c
       0.008302707 0.012485039 0.018938184 0.014117401
0003d0 71 29 f6 bc 45 00 31 bd e6 45 20 39 f9 f7 b8 38
       -0.030049058 -0.043213148 0.00015284828 8.819992e-05
0003e0 f8 21 cd bc 24 f4 c9 bc 7e 88 34 3c 23 e8 4a bd
       -0.025040612 -0.024652548 0.01101887 -0.04953779
0003f0 e5 76 ce bc f5 42 4b 3d d4 47 07 3d 49 2c 2c 3d
       -0.025203178 0.049624402 0.033027485 0.04203442

fc_hidden.bias f4 [128]
000000 b3 ce 4d bc c2 90 39 bd 37 db f9 3b 4c 58 2d 3c
       -0.012561488 -0.045304067 0.0076250094 0.010580134
000010 f0 6e 2e bd df 32 19 3c 45 54 22 bc 9e 82 22 bc
       -0.042586267 0.0093505075 -0.009907787 -0.009918837
000020 99 fa 25 3d 34 05 39 bc ea b1 8b 3b 4f 33 07 3d
       0.04052219 -0.011292744 0.0042631524 0.033007916
000030 09 fb 5b 3c 09 2e 65 3c e0 b0 08 bd bf e9 03 3c
       0.013426551 0.013988026 -0.033371806 0.008051335
000040 9e ec d7 ba 76 12 d9 ba f5 e1 e0 3a 25 5a ca bc
       -0.0016473716 -0.0016561288 0.0017157184 -0.024701187
000050 09 a4 1e bd ab 59 6b bc 2d 15 a6 bc d2 55 77 3d
       -0.038730655 -0.01436464 -0.02027377 0.06038458
000060 c6 a9 07 bd d3 e4 c6 3c a6 59 86 bc 88 0a 90 bc
       -0.033120893 0.024279034 -0.01640017 -0.017583147
000070 cc 78 02 3d 79 73 29 3d f1 9c 00 bd 0b b4 c4 bb
       0.031853482 0.04136989 -0.03139967 -0.006002908
000080 be 5c 93 3c 70 67 56 bd 66 53 f4 bc 1e da 65 bc
       0.017988559 -0.05234474 -0.029824924 -0.014029054
000090 20 bd 22 bd 18 de 37 bd 9b d6 3f bd 69 1c a7 3d
       -0.039731145 -0.04488954 -0.046835523 0.08159716
0000a0 88 b8 98 3c 80 6c 6e 3d d6 14 c9 3c 58 e3 20 bd
       0.018642679 0.058208942 0.024546068 -0.039279312
0000b0 b1 99 9d 3c c8 52 4d bd 26 0c 32 bc 30 c0 68 bd
       0.019238325 -0.050127774 -0.010867154 -0.05682391
0000c0 cb 17 ed bc 38 3a 52 3d 39 99 11 bc 97 0e c8 bc
       -0.02894201 0.051325053 -0.008886629 -0.02442102
0000d0 6a 16 1f bd cf d7 1c bd a9 8d 27 bd fa 33 3b bd
       -0.038839735 -0.03829175 -0.040906582 -0.045703866
0000e0 66 bd 9e bc aa 0b 17 bb 3c ee eb 3c 30 c1 20 bd
       -0.019377422 -0.0023047724 0.028800122 -0.039246738
0000f0 10 21 03 bd 56 97 31 bd a8 cf 20 bd 6a 39 06 bd
       -0.032013953 -0.043357216 -0.039260536 -0.032769598
000100 a9 11 9a bc 13 1c c7 bb e0 cf 49 bd 5f f2 48 3c
       -0.01880725 -0.0060763448 -0.04927051 0.012264817
000110 31 7e a2 ba eb 0c a8 3c 72 6e e7 ba ea fd 87 bb
       -0.0012397227 0.020513972 -0.0017656817 -0.004150142
000120 87 f1 f7 bc fd 59 15 3c 54 92 e4 bc ad e6 36 bd
       -0.030266536 0.009115693 -0.027901806 -0.044653583
000130 10 f0 3f bd b1 90 f1 3c 2f 78 3f bd 1a d7 1c bc
       -0.0468598 0.02948794 -0.046745475 -0.009572769
000140 b0 d1 8a 3c 99 8b d8 3c 90 91 e1 3b e1 7e 77 3c
       0.01694569 0.026433753 0.0068838075 0.015105934
000150 69 68 ab 3c 13 5f 78 3a ff 0e 45 bc 99 20 02 3c
       0.02092381 0.00094746164 -0.012027501 0.007942342
000160 d1 54 2e bd ba a7 b6 3c 72 5c 49 3d 6b 00 0d 3d
       -0.042561356 0.022296775 0.04916043 0.034424227
000170 97 b7 f2 bb 01 66 00 3d 66 f9 a8 bc 60 b2 47 bc
       -0.0074071395 0.03134728 -0.020626735 -0.012188524
000180 e7 8a fb 3c 73 db 7a bd 1a 27 30 3c 9e e1 08 3d
       0.030705882 -0.06124444 0.01075151 0.03341829
000190 39 d6 63 3c 7c 1b 74 3d 47 4e a3 bc a3 c9 bd 3b
       0.013906055 0.059596524 -0.019934786 0.0057918592
0001a0 af 3e 53 bc c7 f7 1f bb 1f e5 a5 bc 5d 39 86 bd
       -0.012893363 -0.0024409161 -0.020250855 -0.0655391
0001b0 81 47 81 bc 2f fa 6e bd 76 6b 29 3c a7 e6 85 3c
       -0.015781166 -0.058344062 0.010340562 0.016345335
0001c0 e4 4c e4 bb 81 75 29 3d 87 da f6 bc 66 00 49 bd
       -0.006967174 0.041371826 -0.030133499 -0.049072646
0001d0 d4 f7 74 bc 8a 19 b1 bc 64 36 80 3c 11 b1 94 3a
       -0.014951665 -0.021618623 0.015650935 0.0011344274
0001e0 ba ab 0e 3c 3b 68 48 3c 0c 88 49 3c ce 5d 8a 3c
       0.008707935 0.012231882 0.0123005025 0.016890433
0001f0 3a 4b 96 bb 95 df ef 3c 66 38 34 bd 6b 83 08 bd
       -0.0045866044 0.029281417 -0.0439991 -0.033328455

value.weight f4 [1, 128]
000000 d1 55 2f bc 3b 88 d3 bd 0c f2 de bc 8a 78 d5 3d
       -0.010701613 -0.10328718 -0.027215026 0.104233816
000010 9a 46 4a 3d a5 f6 4c 3d b6 18 4a 3e e0 33 7f bd
       0.049383737 0.050039906 0.19735989 -0.06230533
000020 6b 67 ba 3e b1 ca 04 bc bb 5d 02 be c0 64 5f bd
       0.36407027 -0.008104966 -0.12731068 -0.054539442
000030 c4 8b d9 ba 54 59 f8 3d 3a 13 11 3d 95 56 1c 3e
       -0.001659744 0.12126413 0.035418727 0.15267403
000040 dd 32 86 bd c6 10 97 3d d9 36 e5 3c 47 7a e7 3b
       -0.0655267 0.07376246 0.027980255 0.007064137
000050 07 cc 99 bd 7a 17 4a bd 5d f7 17 bc 36 cc 2d 3e
       -0.07509618 -0.049338795 -0.009275285 0.16972432
000060 8d b6 90 3e 21 85 70 3e e4 98 65 be 8b 20 c4 3d
       0.28264275 0.23488285 -0.22421604 0.095765196
000070 ba e9 71 3c bc 0a 0d 3d 5f bd df bd 62 e8 83 3b
       0.014765197 0.034434065 -0.109247915 0.004025505
000080 9d ad 8a bd 11 85 24 bd 52 b1 6b bb bf 75 87 3e
       -0.06771395 -0.040165965 -0.0035963845 0.2645702
000090 5b ca 21 be 47 ac 56 be 6c 0f 9c 3b b5 41 13 3d
       -0.15799849 -0.20964156 0.0047625806 0.035951335
0000a0 41 12 cd 3b 0d e9 11 3d 67 b6 52 bc ec 77 80 be
       0.0062582796 0.035622645 -0.012860871 -0.25091493
0000b0 0d 8d 44 3e b2 ec 84 bd 54 30 47 3e a0 9f 85 bd
       0.19194432 -0.064904585 0.1945203 -0.06524587
0000c0 28 29 6b bd 61 14 7f 3d f9 15 d2 bc 0e 58 9b bd
       -0.057412297 0.062275294 -0.025645243 -0.075851545
0000d0 cb 60 22 bd ab d0 2a bd 28 78 2d bd ed a2 ea bd
       -0.03964309 -0.041702908 -0.042350918 -0.11456857
0000e0 dc 9f 8e bc 7d 88 9e 3c cd 39 95 3d 3a a4 41 bd
       -0.017410211 0.019352192 0.07286415 -0.04727576
0000f0 4e 1e 20 bd d6 eb b5 bc 75 c5 9c 3d 96 16 36 3c
       -0.0390914 -0.022207182 0.076548494 0.011113783
000100 05 e2 3c bd 90 54 21 bd d2 cd e9 3b 9e f8 01 3d
       -0.046113987 -0.039387286 0.0071351314 0.03173124
000110 f2 40 96 be c4 91 91 bd ab 10 31 3e c6 fe e1 bd
       -0.29346424 -0.07107881 0.17291515 -0.11034922
000120 d1 3b 1d be 57 a8 87 be 65 df 0b bd 31 8d 5d 3b
       -0.1535485 -0.2649562 -0.034148593 0.003380608
000130 71 06 7d bc fd 52 ba 3e fa 74 20 bd d3 aa cb 3c
       -0.01544343 0.3639144 -0.039174058 0.024861729
000140 4b 68 83 3d b7 5d 12 3d 1a 34 48 3e 30 99 c8 bd
       0.06416377 0.035733905 0.19551125 -0.09794843
000150 b0 a8 be 3e cd b8 73 bd a3 26 58 bd 18 6b 9d 3e
       0.37238073 -0.05950241 -0.05277122 0.3074577
000160 5a c4 6b bd 07 80 96 3e 86 8b df 3e ba 5f 02 3d
       -0.057560302 0.29394552 0.43661135 0.031829573
000170 1e 8a 09 3e ed 05 77 bd 29 bd 5a b8 e3 8a 22 bd
       0.13431594 -0.060308386 -5.215142e-05 -0.039683234
000180 d9 de 39 3d d9 b7 6b bc 4f f6 02 3c e5 db e6 3a
       0.04537854 -0.014387094 0.007993295 0.0017613141
000190 37 97 83 3d b0 56 1a be b1 98 1f bc 77 5f 43 3d
       0.06425326 -0.15072131 -0.009740994 0.047698464
0001a0 81 3d 23 bc 90 85 44 3e 8c 05 a9 bb c4 50 2c bd
       -0.009963394 0.19191575 -0.005158132 -0.04206921
0001b0 e8 74 8f 3d e2 4e 7d bc 90 c2 b9 3e 8c 71 0a 3e
       0.0700472 -0.015460702 0.36281252 0.13519877
0001c0 0d f2 d0 3e ca b4 f8 3e f3 7e a0 bc f7 64 a3 bc
       0.4080967 0.4857543 -0.019591784 -0.019945605
0001d0 d0 8f 11 ba 45 23 d3 bd 7e 53 72 bb 26 50 3b bd
       -0.0005552741 -0.103094615 -0.0036976035 -0.045730732
0001e0 41 16 28 3e fb f9 28 be b2 54 a3 bd bf dc ef 3b
       0.16414739 -0.1650161 -0.07975139 0.007320016
0001f0 d7 d9 98 3e 43 bc 11 be 2b fd b7 bc 64 c9 ff bd
       0.298537 -0.14231972 -0.022459587 -0.12489584
