value network/freeway.pt (torch, 268695 bytes, 5 tensors)

conv.weight f4 [16, 7, 3, 3]
00000000: b0ee 713e 395e ad3e c1ae 973d 48be 893e
00000010: 24f1 003f 2c99 c33e e329 3b3e d9ba 293f
00000020: b72a 863e b6e7 adbd 3f79 bbbc 6be2 03be
00000030: 5b9c b9be d101 febe 63d5 7dbe e46c 47be
00000040: 0102 51be 9ef6 44be 5e0a 173d b070 da3d
00000050: 069d 27bd 41dd a3bd ddd4 6e3e 8a34 b3bd
00000060: e9f9 19bd f296 ac3d 1f0f 5fbd 81f9 b93d
00000070: c162 4d3d 9506 0e3d 6ffc e5bd 32a3 853e
00000080: 3430 22bd 6ddc e5bc 0e25 053e fd8d ddbc
00000090: e30c f4bc 53d9 b33d c27e 24bc 5a93 123d
000000a0: 72e4 6f3e bfd8 783d 3caf 23bd 6f10 1d3e
000000b0: 63f6 33bc 7b4e 48bd 311b ce3d 7e42 e73d
000000c0: aa12 a7bd ac2d bc3e fb0d b6bb e6e7 473d
000000d0: 8300 e63d 9a97 37bc 2d36 2e3b 9b37 293e
000000e0: 0bb6 bb3c 096c 39bd 5ff0 ab3e a65a b63d
000000f0: 3e8d 303d 7f20 2f3e fcf4 f7bc 671d b1bd
00000100: d28b f53d e4a1 fd3d 7c1e 3abe c976 2e3d
00000110: de44 823d 9b93 be3b d726 fe3d 6d8b 7a3e
00000120: f4d8 983c 15ca f4bc 0190 3f3d f2d0 273e
00000130: f0bd dcbd 8c97 973d 63bb d63d 107b 9e3c
00000140: 7fee ad3d 6625 32be 69c4 c23c 7dc5 0f3e
00000150: 9782 453c c024 b7bd 8062 353e 1d34 fdbd
00000160: f499 043e 7027 ddbc 9e42 2abe 1b71 41bd
00000170: 3085 54bd 8e23 83be 8976 c6bd d353 33bc
00000180: e4d6 0b3d cc69 243e 1c5b 2cbd 4317 8d3d
00000190: 0310 2b3d 37ba 8a3d d8c2 f33d 7b23 db3c
000001a0: fc27 01be 42cf 0abe 156b 813c 96db 7cbd
000001b0: 515b 78bb dcf1 dbbd 820e 07be e188 d83c
000001c0: 2f73 723c a59b 9abe 9c46 4e3d f0a9 223d
000001d0: 602b 8cbe 53ab 723d a944 f2ba 50a9 4ebe
000001e0: 9d8a 903d d567 91be 777f 08be 593a 613d
000001f0: a0ff 1abe f34d fbbd b9e1 04be be60 f73c
00000200: 2181 a53d 4069 30be 4026 57bd 87ad 13bd
00000210: ae93 dcbe c45c bcbe a935 e43d 9171 6cbd
00000220: c912 90bd 7f07 a2bc aab2 3f3e e471 4b3e
00000230: 59cf fdbb 2475 133e ea61 0a3d 996c c03d
00000240: 6ac3 c1bd 2c37 68be 7687 debd 95f1 8cbd
00000250: 21d5 b3be 6c3c 383e 8d6d b9bd df1f a9be
00000260: e620 1b3d 692d 21be b96a 65be ba9b 39bd
00000270: bbd1 69be 487c 41bc d193 433e 0d98 42be
00000280: 8cea 03be e378 debc e95f 22be 3ce9 73bd
00000290: d6ff bcbd a24c b2bd 235c cf3c b468 5d3b
000002a0: 20c0 0bbe c24d 74bc 9da4 52bd e6ad 8a3c
000002b0: 897e 4cba 2a0f f73d ee06 e9bd daf1 fcbd
000002c0: a1b1 6c3c c789 26be 288a 51bd c5d1 eebc
000002d0: ba15 a23d 961c 1abc 7d5a 68bd 2adf 7cbe
000002e0: 3152 9dbc f999 e13d 081e 15be c553 6bbd
000002f0: 3f9c 31be 15e3 663d f814 45bc 9bbe 4d3e
00000300: a666 14be 8960 37bb 5176 3f3e a9f0 0fbe
00000310: 4e1e 663e 4433 653e e413 7fbd 9574 f23d
00000320: 3508 2dbd 88a8 86bd 15c2 343e f72e eebc
00000330: 4f77 493d 5a89 e83d 0793 9d3c 43d6 763d
00000340: 7b15 1abd f053 993c 1ec1 a83d eab8 fc3d
00000350: a425 4f3e 7de4 53be 62ac 8a3c 5e91 733d
00000360: 4647 463e ab7f 8abd 9de2 d63d 603c 013d
00000370: 2e1d ca3d 44ae 213e 4cda 1b3e 24d6 b9bd
00000380: 040b 53bd 4274 9f3d 339d a23b a65f fd3d
00000390: 827f 633d 5509 353e e86d 32be 9df4 b03d
000003a0: 2343 c73d f9fa 39be ef92 89bc ee4d b63d
000003b0: 3288 823c af19 923d daca 413e aa48 7ebe
000003c0: 39c0 683c adc7 133e 9d4f 173e 675c b0bd
000003d0: 688c 03be 6884 b33c e088 0a3d feee 8e3d
000003e0: e3cc 23be 9434 97bd 2ea7 ad3d 6c89 cc3d
000003f0: 0324 c13c 6fbf 5bbe 0c39 1dbe 7837 1abe
0.23626208 0.3386095 0.074063785 0.26902986 0.5036795 0.38202798 0.18277697 0.6630073
0.26204464 -0.08491461 -0.022884963 -0.1287934 -0.36252102 -0.4961076 -0.24788432 -0.19475132
-0.2041092 -0.19234702 0.03687512 0.10666025 -0.040921234 -0.08001185 0.23323388 -0.087502554
-0.03759185 0.08427228 -0.05445778 0.09080792 0.050143007 0.034674246 -0.112297885 0.2610107
-0.03959675 -0.028059209 0.13002416 -0.027045244 -0.029791301 0.08781686 -0.010039987 0.035785057
0.23426989 0.06075358 -0.03996204 0.153383 -0.010984036 -0.04890297 0.1006378 0.11291979
-0.08157857 0.36753595 -0.005555866 0.04880514 0.11230566 -0.011205578 0.0026582584 0.16525118
0.022913953 -0.045269046 0.33581826 0.089040086 0.04310345 0.1710224 -0.030268185 -0.08648186
0.11989559 0.12384394 -0.18175691 0.04259375 0.063607916 0.005815936 0.12409752 0.24467249
0.018658139 -0.029881516 0.046768192 0.163883 -0.10778415 0.07401952 0.1048496 0.01934579
0.08492755 -0.17397079 0.023775296 0.1404018 0.012055061 -0.089425564 0.17713356 -0.123634554
0.12949353 -0.026996344 -0.16626975 -0.047227006 -0.05188483 -0.25613064 -0.096905775 -0.010945278
0.034140483 0.16055983 -0.042079076 0.068892024 0.041763317 0.06773799 0.11902398 0.026750317
-0.12612909 -0.13555625 0.015798131 -0.06173285 -0.0037896226 -0.107394904 -0.13189128 0.026432456
0.01479797 -0.30196872 0.050360307 0.039712846 -0.27376842 0.05924542 -0.0018483597 -0.20181775
0.070576884 -0.2839953 -0.13329874 0.054987285 -0.15136576 -0.12270727 -0.12976731 0.030197497
0.0808127 -0.1722765 -0.052526712 -0.03605416 -0.4308142 -0.36789525 0.11143047 -0.057725493
-0.07034833 -0.019778965 0.18720499 0.19867665 -0.007745665 0.14400154 0.033784784 0.09395713
-0.094611004 -0.22677296 -0.10865681 -0.068820156 -0.35123542 0.17991799 -0.09054098 -0.33032128
0.03787317 -0.15739979 -0.22403993 -0.045314528 -0.22833912 -0.011809416 0.19099356 -0.19003315
-0.12882441 -0.027157253 -0.158569 -0.0595486 -0.09228484 -0.08706023 0.025312489 0.0033784332
-0.13647509 -0.014911117 -0.05142652 0.016928624 -0.00078008376 0.12063439 -0.11378275 -0.12350817
0.014446647 -0.16263495 -0.051157147 -0.02915276 0.079143 -0.0094062295 -0.05672692 -0.24694505
-0.019204231 0.11015696 -0.14562237 -0.057452936 -0.1734476 0.056368906 -0.012028925 0.20092241
-0.14492282 -0.0027981123 0.18697478 -0.14056648 0.22472498 0.22382838 -0.06227483 0.118386425
-0.042244155 -0.065751135 0.17652161 -0.029075129 0.049186047 0.11354323 0.019235147 0.06026293
-0.03761814 0.018716782 0.08239959 0.12339957 0.20229203 -0.2069263 0.016927902 0.059464805
0.19363126 -0.06762632 0.10492442 0.03155172 0.09868847 0.15789133 0.15219992 -0.09074047
-0.051524177 0.07785846 0.0049625873 0.12371759 0.055541523 0.17679341 -0.17424738 0.08640406
0.09729602 -0.18162145 -0.016793696 0.08901583 0.015934084 0.07133805 0.18925038 -0.24832407
0.014205986 0.14431639 0.14776464 -0.08611374 -0.1284653 0.021913722 0.03382194 0.06979178
-0.15996127 -0.07383075 0.084791526 0.09987149 0.023576742 -0.21459745 -0.15353793 -0.15060222

conv.bias f4 [16]
00000000: 41ed 9d3d 37f4 56bd a4ea 5a3d 0c3f a3bd
00000010: ec5a 74bb 059c a2bd 2156 d0bd 5ae5 01bc
00000020: 21c9 a5bc 683f f43b 3671 afbd e55a 6b3d
00000030: 513b e1bd d2cb f1bd 998c c1bd 5904 af3d
0.07711268 -0.052478995 0.053446427 -0.079710096 -0.003728564 -0.079399146 -0.10172678 -0.007928217
-0.020237507 0.0074538477 -0.08566515 0.05745973 -0.10997642 -0.11806454 -0.09450645 0.08545751

fc_hidden.weight f4 [64, 1024]
00000000: 0fa5 50bd a105 2c3a f9dc 553d f8ed 493e
00000010: ca2c 843c f84d f63c 3e91 843b 38a1 e4bb
00000020: f6ec f7bd 104d 1dbd f064 de3d 507a 4c3e
00000030: 5075 923d da36 9ebb f9fc 03bc 87bc f6bb
00000040: 2bb1 04bd 23aa 7d38 cd08 c43d 7bac 7b3e
00000050: 740a 293d 1b15 4abd 03a6 c6ba 0c7f f6bc
00000060: 1cf7 313d 2614 283d e088 833d 5a31 6a3e
00000070: 76a8 f93c 2a48 57bd 345b 19bc b0fd c2bc
00000080: 3f05 96bd e2d8 1bbd ae8a 563c 1c95 7d3e
00000090: 5bb1 d1ba 1e79 313c 524c 48bd 2c12 7dbc
000000a0: 90c3 893b b553 35bd 6548 273d b104 533e
000000b0: 5175 30bc 65be 383d a481 5bbd da45 533b
000000c0: bf45 ccbc ef19 d6bb 44c1 23bd 0b09 533e
000000d0: 34c2 083b ef3c 88bd 50c1 acbb 0515 313d
000000e0: 4ee4 7b3d 2142 c7bc ff09 953d cdb6 803e
000000f0: ae56 af3b 1b47 e9bc ef3b 2bbd 0b53 5a3d
00000100: f277 f93b 2ebf 83bc 110e 1e3d b508 f43c
00000110: 67e1 dcbc 186c f9bc 8e02 94bb a8f7 c83b
00000120: 8ef8 8fbd 821d 3e3b f313 583d eaf5 bf3b
00000130: e406 32ba 444a babd 29f1 363c 16f5 483c
00000140: 1e2c 5abd 8d37 da3c 32a3 f73c 26b0 14bc
00000150: 050d 02bd 2140 28bd 4aa9 fb3c 7e3e b2bc
00000160: 68ed ddbd 3c43 103c 41a7 a33c 42eb f63c
00000170: f6eb 2abc 5dc8 20bc ef75 a23c fe5f 91bc
00000180: e4d1 aebd df5d 2b3c fb58 94bd 508e 303d
00000190: 8536 0a3d e440 03bd 48a4 9fbb db6a 9abc
000001a0: 9d31 bebd 0ce3 b43c 1610 04bd 186e 933c
000001b0: ef8c cb3c 796e fcbc 949f 6e3c 9f3a 243c
000001c0: d00d 15bd 409a 4cbc d894 22bd 3d53 1b3b
000001d0: 87df 4fbd d311 1ebb dbbe 223d 0dac 19bd
000001e0: 695b bf3b bcae 203d c408 adbd b3bd 7fbc
000001f0: c62f 133d 686e 143d 02f4 e73b 4396 8bbd
00000200: 0128 47bc 4dcd 9f3c b962 acbc e718 ddbb
00000210: f49f 35bc fef0 3d3d 8a93 abbc f095 2cbb
00000220: ea7d 703c f52b 953d 57eb cfbc f209 ea3c
00000230: 69e7 723c 92b5 0c3b c410 9a3c 6ea2 0f3d
00000240: 5089 023d 5bb0 0d3c 9a79 86bc a2f8 ee3c
00000250: 1fce 553d 33ae f33c c5f8 553d e14c 0d3c
00000260: cba9 d8bc 11bd 883c 7515 b6ba 9909 8f3d
00000270: 6b0e af3d 3398 943c 5bc7 ac3d 2bbe 613d
00000280: 7883 ae3d 23d9 65bb 9f26 6b38 14b5 883d
00000290: 50be cb3d 947d 343c dba7 6c3d 796f 923d
000002a0: 3881 5e3b cedb 0bbc 27ed 48bc 97f3 a13d
000002b0: 557c 963d 2795 05bd 95e4 5c3d 3fe2 283d
000002c0: f209 e3bb ee02 8c3c b605 d2bc 4d14 013e
000002d0: 0996 263d b48c 2fbc 17cb 50bb d36f 1d3d
000002e0: 9ee7 2dbc 9713 84bb 2d20 ee3c 71cd c03d
000002f0: dadf 413e 58dd f8bc 9890 ea3c c5c4 863d
00000300: 7ba4 e9bc 378c 273b 688c dd3d 266f 5ebb
00000310: dc18 94bd 6d33 a13b 8cd7 48bd 6b60 63bc
00000320: b497 c83a 5a45 1f3d 571d 8b3d 5a11 9fbc
00000330: 1297 22bd 29ca 243c 8870 54bc 8343 22bc
00000340: e0f8 b53c 81b2 27bd 8ba8 cabc 7503 4dbd
00000350: f883 91bc c3e8 a53c c8a9 4b3d afed a33c
00000360: ab8f 2e3c fd21 273c b09b b2bd 281b 67bd
00000370: c2c7 2e3d ed45 5a3d 48c2 2b3d 2952 753b
00000380: 7130 0f3c 4e9c 96bd b771 39bd bb6c 2e3d
00000390: 44fb 4a3b d3bd 15bd d373 7f3d 17eb 3bbd
000003a0: 4d4d 413c 14d1 09bd b6b3 68bd d173 5d3c
000003b0: d8be 673c 0a19 243c ef6d 85bc e0e7 29bd
000003c0: 5cbb e13c 1e34 0cbc 583e 3abd ed0a 753d
000003d0: d185 343d 3213 f03c 7500 a03c eb85 3bbd
000003e0: 516d 70bd bb9b aab8 44ca 4bbd cbf6 863c
000003f0: badb cbbc 155c 12bc 230c c23c 3bd8 7cbc
-0.050938662 0.0006562118 0.05221269 0.19719684 0.016134638 0.030066475 0.0040456345 -0.0069772266
-0.121057436 -0.03840357 0.10859096 0.19968534 0.07151282 -0.004828316 -0.008055919 -0.0075297984
-0.032395523 6.0478353e-05 0.09571991 0.24577515 0.041269735 -0.049336534 -0.0015155677 -0.030089878
0.043448552 0.04103484 0.06422591 0.22870389 0.030475836 -0.052559055 -0.009360123 -0.023802608
-0.07325219 -0.038048632 0.013094587 0.24763912 -0.0015998291 0.010832099 -0.04890091 -0.015446227
0.004204221 -0.044269282 0.040840525 0.20607258 -0.010770158 0.04510345 -0.05359043 0.003223768
-0.024935601 -0.0065338532 -0.039979234 0.20608918 0.0020867707 -0.06652247 -0.005272068 0.043232936
0.061497025 -0.024323525 0.07277297 0.25139466 0.005350909 -0.028476289 -0.041805204 0.053301852
0.0076131755 -0.016082373 0.038587634 0.029789308 -0.026962949 -0.03044705 -0.004516906 0.0061330386
-0.0702983 0.0029009287 0.0527534 0.0058581727 -0.0006791188 -0.09096196 0.0111658955 0.012265464
-0.05326473 0.026637817 0.030229185 -0.0090752 -0.031750698 -0.041076783 0.030720372 -0.021758314
-0.10836297 0.008805092 0.019977214 0.030141477 -0.010432234 -0.009813395 0.019831626 -0.017745968
-0.08536127 0.010459392 -0.07243534 0.04310447 0.0337434 -0.032044306 -0.004871879 -0.01884978
-0.09286807 0.02208092 -0.032241903 0.017996833 0.024847476 -0.030814396 0.014564414 0.010023742
-0.036390126 -0.012487948 -0.03969273 0.0023700737 -0.05075028 -0.002411951 0.039732795 -0.037517596
0.0058397544 0.03922914 -0.084489375 -0.015609193 0.035934232 0.036238104 0.0070786485 -0.068157695
-0.012155534 0.019507075 -0.021043168 -0.0067473534 -0.011085499 0.046372406 -0.020944376 -0.0026334487
0.014678458 0.07283775 -0.025380773 0.028569195 0.01482568 0.002147053 0.018806823 0.035067014
0.031869233 0.008648003 -0.016415406 0.029171292 0.052198526 0.02974615 0.0522392 0.008624286
-0.026448151 0.016691716 -0.0013891893 0.069842525 0.08547672 0.01813898 0.084364615 0.055113
0.085211694 -0.003507205 5.6064335e-05 0.06675163 0.099484086 0.011016268 0.057777267 0.07150168
0.0033951532 -0.008536292 -0.012263573 0.07907789 0.07347933 -0.032612946 0.05392893 0.04123139
-0.006928676 0.01709124 -0.025637489 0.126054 0.04067043 -0.010714699 -0.0031859332 0.038436722
-0.010614304 -0.0040306556 0.029068077 0.09414185 0.18933049 -0.030378982 0.0286334 0.065804996
-0.028520813 0.0025565752 0.10817796 -0.0033940761 -0.07231304 0.0049194605 -0.049033687 -0.013877968
0.0015304 0.0388845 0.067927055 -0.019417454 -0.039694853 0.010057964 -0.012966283 -0.009903791
0.0222134 -0.04094172 -0.02473857 -0.050052125 -0.017763123 0.020252591 0.049722463 0.020010797
0.01065437 0.0102009745 -0.08721101 -0.056422383 0.042670973 0.053289343 0.041933328 0.0037433004
0.008739577 -0.073540315 -0.045274463 0.042584162 0.003097252 -0.036557984 0.062366318 -0.045878496
0.011798215 -0.033646658 -0.05681201 0.013516382 0.014144622 0.010015735 -0.016287772 -0.0414809
0.02755516 -0.008557348 -0.045469612 0.059824873 0.04407293 0.029306028 0.019531468 -0.04578201
-0.058698002 -8.135239e-05 -0.049753442 0.016475102 -0.024885047 -0.008933087 0.023687428 -0.015432413

fc_hidden.bias f4 [64]
00000000: 7d66 643d d433 bcbb 9fb9 22bd 1700 62bd
00000010: 04e7 9a3c 84cd 2ebd dd5a 11bd 657f 18bb
00000020: 541e 893c 6cce 33bd 1ab7 ccbc 218b 18bd
00000030: b761 e53c 4c06 1ebd 03dc 9e3c e1ef 783b
00000040: 3757 463c f80f 3a3d 645d 90bb c9d7 12bc
00000050: 6a14 80bc b6f9 093a 357d 30bd 412d bdbc
00000060: c02e 21bd c08a 683b 401e c03b 97ed 42bd
00000070: 744d ca3b 455c 4ebd 27cb 94bc 124a 60ba
00000080: ebf1 b13b 13e1 cebc 3387 7b3d 61a9 3ebd
00000090: d963 80bb 3f55 02bd 2368 283d df9d 153d
000000a0: bbc9 26bc 5d83 28bc 8fbe 9ebc bd36 50bd
000000b0: 2d79 de3c 9cbc 09bd 64d0 6f3c 085e 85bc
000000c0: 0f18 28bd 4af4 08bd 28f1 d03b b641 07bc
000000d0: 46cd cfbc e1b1 82bd b8e6 a83c d68b 0e3c
000000e0: c011 cc39 4b78 c93c 4cde 6cbd 1fd4 9c3b
000000f0: 651e c3bc 8a5f cabb ec76 02bd 8729 1cbd
0.055761803 -0.005743483 -0.039727803 -0.055175867 0.018908985 -0.042676464 -0.035487045 -0.0023269292
0.016738094 -0.04389803 -0.024989653 -0.03724206 0.028000696 -0.038580224 0.01939202 0.0037984776
0.012105755 0.045425385 -0.0044056643 -0.00896258 -0.015634734 0.0005263345 -0.043088157 -0.023092868
-0.039351225 0.0035483092 0.005862981 -0.047589865 0.006173784 -0.050380964 -0.018163277 -0.0008555959
0.00543045 -0.025253808 0.061408233 -0.04654825 -0.003918153 -0.03181958 0.041114938 0.03652751
-0.010179932 -0.010285226 -0.019377975 -0.050833452 0.02715739 -0.033627138 0.014637087 -0.01628019
-0.04103857 -0.033436097 0.0063764043 -0.008255413 -0.025366437 -0.06381584 0.020617828 0.008700332
0.00038923137 0.024593493 -0.057829186 0.004786029 -0.023818204 -0.00617594 -0.031851694 -0.03812554

value.weight f4 [1, 64]
00000000: 1829 b43d 58a6 a23d e7cf 03bd 5d55 1cbe
00000010: 3591 ae3d 12e4 b5bd 19f9 e33c ff16 c63d
00000020: f0c8 ba3d bc28 3bbd 210b 57bd 0f02 c1bd
00000030: 467b fd3d f94c 9abd 45be b83d 0d4d cfbd
00000040: 0353 a43d 3ea7 043e 09d4 db3d 1aa6 09bd
00000050: a821 253d 6658 9dbd cd26 e7bd da20 9abc
00000060: 946e 04bd 78af 6abd 10a4 9abd 8e65 dabd
00000070: ddb0 c4bd 97e3 d0bd 6c02 063e 9efe ce3d
00000080: a329 b13c 053b 8a3d 31bc 133e 1bc9 abbd
00000090: 2869 00be bf02 e83c 4d00 003e ebd9 c93d
000000a0: c6c4 01be efec 093e dd19 ad3d b6a6 ddbc
000000b0: c569 ef3d 23a9 9f3c f091 a6bd 4b5e fabc
000000c0: 0101 afbc beb3 7fbd 07f1 073d 4e8c 7d3d
000000d0: ce8d f1bd 1660 5a3e 1273 4e3d 6ccc c8bc
000000e0: 3e05 e63d d6ce 8f3d 61a2 b13e 2325 92bd
000000f0: b5d8 bdbc 8678 0b3d 87d1 9dbd 758b 743e
0.087969005 0.07941884 -0.032180693 -0.15266939 0.0852379 -0.088813916 0.02782874 0.09672355
0.09120357 -0.045693144 -0.052500848 -0.09424221 0.12377028 -0.075342126 0.09020666 -0.10122118
0.08023646 0.12954423 0.10733802 -0.033605672 0.0403153 -0.07682876 -0.112866975 -0.018814493
-0.032332018 -0.057296246 -0.07550824 -0.10663901 -0.096040465 -0.10199659 0.13086861 0.10107158
0.0216263 0.06749538 0.14427258 -0.08387967 -0.12540114 0.028321622 0.12500115 0.09856018
-0.1267272 0.13469289 0.08452199 -0.027057033 0.11690096 0.01948983 -0.08133304 -0.03056254
-0.021362783 -0.062427275 0.033188846 0.061901383 -0.11794625 0.21325716 0.05040271 -0.024511538
0.112314686 0.07021873 0.34694198 -0.071359895 -0.023174623 0.034050487 -0.0770598 0.23881324
